survival/model/model_520.pth (torch, 17167 bytes, 4 tensors)

linear_one.weight f4 [256, 11]
00000000: fcce 62be b6cf 90be 0575 9dbe 86a3 2bbe
00000010: b476 72bd f1cb bc3c 17ec 25be 9040 163e
00000020: 1431 1c3e a067 c23c 770c 77be b043 f7bd
00000030: 7cf1 cd3d 5c61 7cbd 4a4b 7fbe f40a 37be
00000040: 66fe 12be 0ace bbbd 2ae8 f7bd e9ee 87be
00000050: 78cb 94be ee30 873e c058 e3be 87d5 e2bd
00000060: c137 36be c236 2c3e 531c 11be 66b6 39ba
00000070: 8d0c 7cbc 06ac b3bd df35 b1bc 6c02 a63d
00000080: a365 833e 9d9d 233e 5e8b 2fbf de7e 223b
00000090: 80cc bc3e 08bc c7bc 5bb4 dd3b b876 62be
000000a0: b1b0 3fbe 4b83 72be 91ec 703e ae7e 05be
000000b0: 90e9 ed3d 5733 d0bd 2198 0dbf 0f42 063f
000000c0: 460c a13e 2e86 9cbe ee6a a33e 7d87 54be
000000d0: 288a 07be ab5c 9abe 8d00 b8be 6f2b 96be
000000e0: a14f 773c f629 d53d 64a2 ae3e f84b d4be
000000f0: 717f ddbe 0b71 0cbf 4915 0d3f 619b 66be
00000100: e472 21bf 6413 2fbf b9be 7b3e 446f 6bbd
00000110: 2abc e7ba e231 c63e b355 ae3e c6a4 48bf
00000120: 359a 81bf 41f5 103f f09b 053f eae2 5dbf
00000130: 80bf 52bf 1fd6 44bd 30e5 78be a7b2 003e
00000140: 8431 cebe cfc3 c1be a49d a13b 869d fb3d
00000150: 2f55 1fbf db3c 0ebf f4a8 a33e 858b c23e
00000160: 79ca 053e 6d21 133e 306d 0abe 78a3 f63e
00000170: 1a36 1c3c 60aa bcbe d68d d13e 60cf 05bf
00000180: 9dd2 02be f4c5 cc3e 594d c5be 99d1 72be
00000190: 0a0a 01bf e23d b2be b4e3 d23e 16b1 34be
000001a0: 25ba af3e 7ce2 ca3e 230e eebd 9a03 713e
000001b0: c809 61be e6d6 b3be d9ac 72be bda7 4bbe
000001c0: d70b 5dbe 4f09 213d 4513 fe3d 3528 e93d
000001d0: a77e e83d 568b 4e3e 6f18 223e da0a 4b3e
000001e0: b953 0a3e bc92 9ebe 7489 e43d 7c68 acbe
000001f0: 7fc6 d8be 3d4c 2abe 13aa 713a 711e c43c
00000200: 06a7 93be 364d 923d d7d0 58bc dd9d bc3d
00000210: ac8e 393b c680 d23d f063 67be 712f cbbe
00000220: 0270 10bf de81 6b3e 5230 0e3f cfc5 a63e
00000230: 1503 0e3f 236f 59be a439 0bbf 4a0b 943e
00000240: c8cf e73d 7306 8bbe 946c 023f a542 a03e
00000250: c224 51be 0498 2f3e d3a2 89be 1690 0bbf
00000260: 6631 b0be 4e83 dabe 9dfa f5be c547 b1be
00000270: 3462 c5bd 53c3 e43e 695a c4be af78 ee3e
00000280: a50b 9b3e f1f1 b4be 8faa fe3e d289 a1be
00000290: 7169 87be bae2 8ebe 4025 5abe 9804 393e
000002a0: a4a6 8fbd b741 c03e e87e a2be e24c 69be
000002b0: 75d0 ae3e 8da5 9fbe a4a6 10bf 660e 8e3e
000002c0: 32ab a0be b432 e8be 5316 c1bd e875 48bd
000002d0: 70d9 32be 038c a03e 5bb3 34be 5d60 e43d
000002e0: a864 59be 2743 8abe 787d 5c3e 4ac2 3fbe
000002f0: addb 88be 6a34 fa3c d649 bcbc 993c 98be
00000300: c8d5 b03d 4480 a43d 802f 37bb f688 34be
00000310: 2473 903e b8f2 853e 4e2b c5bd e143 8bbe
00000320: 5780 1ebe 6f85 8f3e a579 41be 123d 6ebe
00000330: c14f 323e a14f 7a3e 2fca 8bbe e315 84bd
00000340: 6692 cdbe 8f4f 95be 2abd acbd c0cb b0be
00000350: 9fa1 133d 18bf e2bd c512 cf3d 8c30 11be
00000360: 0e7b 973e 685d bc3e ae9c bd3e 1bb4 8f3e
00000370: a78e 783d c427 533a 30d4 1ebe 51c5 84bc
00000380: a83b 14be 7c08 8ebe 1345 cc3d 9f40 89be
00000390: e5f5 dd3b 6598 ae3d 45b7 36be 1186 2ebe
000003a0: 9557 313c 4b7e 7dbe 06a4 f23d 7235 983e
000003b0: 8010 37bb 4bc2 4f3e df66 3f3d 765e 65be
000003c0: 1110 0d3e 3c46 303d 7638 2abf 383b 89be
000003d0: 47e2 c0be baef bfbd 0b44 4b3e ec73 56bd
000003e0: 5d38 a53d f655 3a3e 72a7 913d eeec b23b
000003f0: 5f10 203e a89c 5bbe 7fb8 aabd ca98 9dbe
-0.22149271 -0.2828347 -0.3075334 -0.16761598 -0.059195235 0.023046466 -0.16203342 0.14673066
0.15253097 0.023731053 -0.24125849 -0.12073457 0.10055825 -0.061616287 -0.24931064 -0.17875272
-0.14354858 -0.09170158 -0.12104829 -0.2654946 -0.29061484 0.26404518 -0.44403648 -0.11075883
-0.17794706 0.16817763 -0.14170961 -0.00070843694 -0.015383852 -0.08773045 -0.021632133 0.08105931
0.2566348 0.15978093 -0.6857203 0.0024794857 0.3687477 -0.024381652 0.006765885 -0.221156
-0.18719746 -0.23682897 0.23527743 -0.13036606 0.11616814 -0.10166042 -0.55310255 0.5244455
0.31454676 -0.3057112 0.31917518 -0.2075481 -0.13236296 -0.30148825 -0.3593792 -0.29330012
0.015094669 0.10408394 0.3410827 -0.4146421 -0.43261293 -0.5485999 0.55110604 -0.2252021
-0.63065934 -0.6838896 0.24584474 -0.057479158 -0.0017679979 0.38709933 0.34049758 -0.78376424
-1.0125185 0.5662423 0.52191067 -0.8667437 -0.82323456 -0.048055764 -0.24306178 0.1256815
-0.40272152 -0.37844703 0.0049321223 0.122859046 -0.62239355 -0.5556161 0.31964839 0.3799707
0.13065518 0.1436822 -0.13518214 0.48171592 0.009534383 -0.36848736 0.40928525 -0.52269554
-0.12775655 0.39994776 -0.38535574 -0.23712768 -0.50405943 -0.34812838 0.4118935 -0.17645678
0.34321705 0.3962592 -0.1162379 0.2353653 -0.21976388 -0.35124892 -0.23698749 -0.19888206
-0.21586548 0.039315518 0.12406019 0.11384622 0.11352282 0.2017034 0.15829633 0.19828358
0.135085 -0.30971324 0.111590296 -0.33673465 -0.4233894 -0.16630645 0.00092187634 0.023940297
-0.28838366 0.07143633 -0.013233385 0.092097975 0.0028313799 0.10278468 -0.22596717 -0.39684632
-0.5642091 0.22998759 0.5554248 0.3257279 0.5547345 -0.21233802 -0.5438483 0.28914863
0.11318928 -0.27153358 0.5094693 0.31300846 -0.20424178 0.17147833 -0.26882038 -0.5451673
-0.34412688 -0.42678303 -0.48042765 -0.34625068 -0.096378714 0.4468027 -0.38350227 0.4657645
0.30282322 -0.35340837 0.497395 -0.3155046 -0.26447633 -0.27907354 -0.21303272 0.18068159
-0.07014206 0.37550136 -0.31737447 -0.22783235 0.34143415 -0.31180993 -0.56504273 0.2774536
-0.31380612 -0.45351183 -0.09428086 -0.04894057 -0.17465758 0.3135682 -0.17646544 0.11151192
-0.21229804 -0.27004358 0.21532238 -0.18726459 -0.267301 0.030542571 -0.022984426 -0.29733732
0.086345255 0.08032277 -0.0027951896 -0.17630371 0.28212845 0.26161742 -0.096274 -0.27200225
-0.15478645 0.2803149 -0.1889406 -0.23265484 0.17413236 0.24444439 -0.2730269 -0.06449487
-0.40150756 -0.2916226 -0.08434518 -0.3453045 0.036042806 -0.110716045 0.10111002 -0.14178675
0.2958607 0.36790013 0.370336 0.28067097 0.06068292 0.0008054937 -0.1551063 -0.016207369
-0.14475882 -0.27740848 0.09974112 -0.26807114 0.0067736977 0.08525161 -0.1784335 -0.1704333
0.010824104 -0.24755208 0.11847691 0.29728276 -0.0027933419 0.2028896 0.046728965 -0.22399315
0.1377566 0.04303573 -0.664924 -0.26802993 -0.37672636 -0.09371896 0.19850175 -0.052356645
0.08067391 0.18196854 0.07112016 0.005460373 0.15631245 -0.21446478 -0.08335971 -0.3078063

linear_one.bias f4 [256]
00000000: fda7 273d 4012 76be 320f 273e f710 303b
00000010: c34a 8f3e 910d e2bc 7ab3 633e 629b 8e3d
00000020: 2e7d 62be e7b7 97bd a476 4ebe 0f2f 2fbe
00000030: 271c c93c b8b5 3fbd 9a39 f0bd d491 25bc
00000040: 8666 efbc 549c 98be 3579 9dbe 79ea 4dbe
00000050: 4542 4cbe 35d1 dbbe a10d 253d f80b 08be
00000060: e738 62be b5b1 ddbd a518 57bc 3e29 903e
00000070: e276 cd3e 900d 08be f4cf f5bc 3a3c ecbd
00000080: 9cf5 14be 879d e73b cbc3 04be 6da6 6ebd
00000090: 84a8 5abe 50b9 37be f368 91bd 567c 3dbd
000000a0: e9fc 0cbc 704a 223e 0b5c a8bd caed 08be
000000b0: 6dc3 b7be 99f8 26be 7d0f 50be d3dc a0bd
000000c0: 9da7 80bd be67 b63e dd8b 4ebe 1cd7 5a3e
000000d0: 5f4a 343d 3ba4 803d fbce 6cbd f93c 193e
000000e0: 1fb5 63bd 0db5 b6bc 7150 1e3d 4e35 87be
000000f0: 4bf4 35bd 577b 93be 19f5 d2bd 0ed0 73be
00000100: 97f8 90be d4bf bfbe 689a 41be 577e 8ebe
00000110: cff0 853d e94b e33e e853 9bbe 9527 3cbd
00000120: 5ac3 07be 4144 12be 461d 42be 3d9a 94be
00000130: 18d4 f23e ca06 26be 210f debd f3b4 dbbd
00000140: 0e47 453e 37ad 72be d1e4 67be d172 df3c
00000150: fab9 a63d 1c4c 64bd b9e0 9c3d 4877 98bd
00000160: 9614 e1bc 9fdd 1abe fc1c c4bc 604b 363e
00000170: b76f 61be 1725 2c3d f3cb d73e a87f 1fbb
00000180: 7806 993d 5eea 5c3c 7d5a 1f3e eda7 4fbd
00000190: 4d11 203e 3162 85bd de3a 773d 7599 853e
000001a0: 8ce7 ca3d 5e62 91bb fd61 3abe 1a12 9cbe
000001b0: 0814 c7bd 0e3c 8ebe 0816 42bd f038 7cbe
000001c0: 9140 253e b575 7f3e 99da 12be b237 d6be
000001d0: 2ed1 493d 6c2d e53d 4b1e 88be 0bfe f4bd
000001e0: d856 9abe ce4b f13d a0e5 1f3e dd9f 5f3f
000001f0: ecbe 4bbe 6118 dcbc 5e4b 57be 090b 7ebe
00000200: 2714 21bc 2d66 80be 0c4b 433d bebe d43c
00000210: fb46 4e3e bf83 59be cf74 7ebd 4d42 03bd
00000220: 55d7 4abe d666 6ebe f3a3 a3be 1396 27be
00000230: 4784 023e 89a0 ccbe 4a66 02be 6b0f 28be
00000240: afb9 e93e bc03 0fbe 5525 87be 7102 44be
00000250: 4f30 c23d 25a3 e63d 0c1d 0cbe 03ca c4be
00000260: cd01 853e 5b9f fbbc 8833 4dbe c2a5 3c3e
00000270: fb03 9fbe 1857 9cbd 24e8 2ebe 992f fb3d
00000280: 9eab b93d 0dd0 85be d2ca 39bd c4e3 873d
00000290: faf6 8bbe ff95 a73e 1d00 32bd 984e 533f
000002a0: 8442 9fbd 5d83 60be fd65 913e 61ba 063d
000002b0: f500 11be db5b a7bd e975 bc3d 887f 7ebd
000002c0: 0bc7 edbe 065d 653e f78a 4cbd de99 113e
000002d0: 9148 3bbe 0832 5e3e 06c3 7e3d 2330 523f
000002e0: a154 89be 39b6 0ebe 6991 6dbe a337 1f3e
000002f0: 52b1 2d3e b243 92bd 1fa9 0fbe 973a b4be
00000300: 0f5f a7be 122d 553b 00cc 2f3e 46c4 ad3d
00000310: ddfc f3bd e7c3 c73e 1918 a1be 2f42 5dbe
00000320: 1b1b 143e f3bb ccbb 7f1f 98be cfd7 f9bd
00000330: 8742 10be 7bc9 c0be 34ff 843e 626d 103e
00000340: e5d0 283e 3d87 f1bd c843 843d f546 bc3d
00000350: 3657 04be bd5b 483e cc08 003e 7dd4 72be
00000360: 3dfa 9a3d 7258 a5be 48bf 06be 9693 093e
00000370: 0d8b 90be 6dfd 593c c56e 96be 027d 713e
00000380: 9765 22be b230 0e3d 0e35 b3bd be87 12be
00000390: 6cca a2bd 6558 ad3b 13be 273e 9266 0c3e
000003a0: 0b83 78be 661e 9abe 2dbb 8dbd 00e0 6d3e
000003b0: 6525 ae3e 038d 90bd 4766 a9be abc9 29be
000003c0: 1df1 4f3f c69e 02be 59e6 e73d 9db2 a8be
000003d0: 7422 123f 6ebd 3dbe 9c80 883e d455 043e
000003e0: dcfd ba3e c53a b9be 6e7e a43e a195 f03d
000003f0: bab8 ffbe 55c7 e8bd 03c0 65bc fe00 b93e
0.04093169 -0.240304 0.1631439 0.002686558 0.27986726 -0.02759436 0.22236434 0.06963231
-0.22118065 -0.074081235 -0.20162445 -0.17107795 0.024549557 -0.04680416 -0.117297366 -0.010105569
-0.029223692 -0.2980677 -0.30756536 -0.20108975 -0.19947155 -0.4293305 0.0402962 -0.13285816
-0.22092019 -0.108249106 -0.013128434 0.28156465 0.40129763 -0.13286424 -0.030006386 -0.11534925
-0.14546818 0.0070683393 -0.12965314 -0.058264185 -0.21353346 -0.17941785 -0.071000956 -0.046261154
-0.00860522 0.15848708 -0.08220681 -0.1337196 -0.35891286 -0.1630577 -0.20318408 -0.07854619
-0.0628197 0.35626024 -0.20170541 0.2137112 0.04401624 0.062813245 -0.05781458 0.14964665
-0.055592652 -0.022303129 0.038650934 -0.26407856 -0.04442243 -0.28805038 -0.10300655 -0.23809835
-0.2831466 -0.3745104 -0.18906558 -0.27830765 0.06540071 0.44393852 -0.30337453 -0.045936186
-0.13258114 -0.1428385 -0.1895648 -0.29023924 0.4742744 -0.16213527 -0.10842729 -0.10727873
0.19265386 -0.23698889 -0.2264588 0.027276428 0.08140941 -0.055736646 0.0766005 -0.07444626
-0.027475636 -0.15123604 -0.023939602 0.17802191 -0.22015272 0.04202756 0.42147788 -0.0024337564
0.07471937 0.013483612 0.15561862 -0.050697256 0.156316 -0.06512869 0.060358874 0.2609364
0.09907445 -0.004436775 -0.18201442 -0.3048256 -0.097206175 -0.27780193 -0.047384292 -0.24631095
0.16137911 0.24947245 -0.14341201 -0.41839367 0.049271755 0.11190304 -0.26585612 -0.11962517
-0.30144382 0.11782037 0.15614939 0.87353307 -0.1989705 -0.026867094 -0.21024844 -0.24808897
-0.009831465 -0.25077954 0.047678992 0.02596986 0.20144264 -0.21241663 -0.062123116 -0.03204565
-0.19808705 -0.23281416 -0.3196102 -0.16365843 0.12745772 -0.3996623 -0.12734333 -0.16412131
0.45649478 -0.13966268 -0.2639567 -0.19141556 0.094818704 0.11261586 -0.13682956 -0.38435373
0.25977936 -0.030715635 -0.20039189 0.18422607 -0.31057724 -0.07633799 -0.17080742 0.12264938
0.090659365 -0.26135293 -0.04535944 0.0663524 -0.27336866 0.32731625 -0.04345714 0.825418
-0.07776359 -0.21925111 0.28398123 0.03289259 -0.14160521 -0.08171817 0.09202177 -0.062133342
-0.4644092 0.22398767 -0.049937215 0.14218852 -0.182894 0.21698773 0.062197708 0.821047
-0.2682238 -0.139367 -0.23200001 0.15548567 0.16962174 -0.07141818 -0.14029358 -0.3520095
-0.3268971 0.0032528085 0.17167664 0.08484702 -0.11913464 0.3901665 -0.31463698 -0.21607278
0.14463465 -0.006247991 -0.2971153 -0.12199365 -0.14087878 -0.37653717 0.25975955 0.14104226
0.16485937 -0.11793373 0.06458241 0.091932215 -0.12923893 0.19566245 0.12503356 -0.2371387
0.075672604 -0.3229404 -0.13158906 0.13435206 -0.28231087 0.01330505 -0.29381385 0.23582843
-0.15859066 0.03471441 -0.08750354 -0.14309594 -0.07948765 0.0052900785 0.16381101 0.13711002
-0.24268739 -0.30101317 -0.069204666 0.2322998 0.34012905 -0.07058146 -0.33085844 -0.16580836
0.81227285 -0.1275588 0.11323232 -0.3294877 0.5708382 -0.18529293 0.2666062 0.12923366
0.36521804 -0.3617765 0.32127708 0.117472894 -0.49945623 -0.113661446 -0.01402283 0.3613357

linear_two.weight f4 [3, 256]
00000000: 3bb9 28ba 2a3d 033d 29d6 543f 24c0 ce3c
00000010: 7db0 5cbe dfb1 973e dc71 193f 7039 b43d
00000020: 769d afbd 0036 03be 2348 ad3b 96d6 833e
00000030: e1c2 f2be 3049 4bbe f924 a13f dbba fbbc
00000040: 7172 d63e 84ce dcbc 7cde 753c 917e 77ba
00000050: cdbf 5a3c f73a a23d 1c0a 383d 6e2d 82be
00000060: 7918 52bc 8013 2e3f 6eda adbc 7d97 debe
00000070: 93c4 c4be 1d07 723b 0eaa 0e3f a11a 52be
00000080: 7d9d 44be 519a a2bd 14f4 de3c 7ff4 d9bc
00000090: ba57 3e3e 287a e3be 865c 273f fdda a1be
000000a0: ceac 46bf cffe b7be de1d 1ebd 7343 0dbb
000000b0: 8482 5e3d bc0b f33d 550e 62bc 44b0 2dbf
000000c0: 265c 82bf fcb2 573a 9abb 80bd fad8 eb3d
000000d0: e762 4fbe 7d77 2c3c a6c7 94bd 3550 1abe
000000e0: 60b6 2e3c 8a11 81be 4b4d d1bb 4b70 4c3c
000000f0: 2e7b 3ebf a474 55be 509d 87bd b5d9 9fbd
00000100: e227 32be 5b6a 22be 49aa 863d 73af 89be
00000110: 046d 613c 9e93 82be 9d99 42bd 3473 8a3c
00000120: 38e1 b33e 6e28 d1be 81ab 44be dd01 e5ba
00000130: 1045 34bf 6a0f 0abd 0e23 0cbe 36e9 983e
00000140: c027 f1be ad4a 24bd 1da8 e23d 72d7 e9bc
00000150: f73f 7d3e e8bb da3e a897 453e a3d3 fbbd
00000160: b27d e1bc efbd 64bf 007c 6ebf b5a2 13bf
00000170: 61dc 6bbe 473e bfbb ed1e 83bf 2785 9a3e
00000180: 1f4c d4bd bd9b c93c a693 61bf 80c9 4e3e
00000190: b38a 4cbf 8b6d b83d aa3d 35be ca43 853b
000001a0: ad21 983e 4ebb 86be 2c9b 9b3e e4b0 89bd
000001b0: 356c 54bd 1e9b 98ba c804 393e c08d e73c
000001c0: 70ae 213f c238 85bb 9e76 083e 7cb2 4e3f
000001d0: 72c6 af3e 259e 0d3e 1208 c43b 657a acbe
000001e0: 1ef0 6cbc cf57 8dbe d4c3 a8bc dab1 8fbf
000001f0: eb0b 183d 142d c0be 8bbe 823d a0ff 583d
00000200: d559 ecbe dd70 513e 5934 fb3c 0569 643c
00000210: e948 94be f8a6 34bd bd20 abbb 9078 00bc
00000220: 7ef8 003e 5e6c d43d 368c 373a c175 a0bd
00000230: df6c 0f3f 8ba6 b53f 82df 0abe c0fa 503c
00000240: 0419 72be 827d 19bf 8dbe 9dbe 8588 8e3c
00000250: 9fac 1bbe 764a 88be 9f83 81bd 9b5d 0b3e
00000260: 3c78 483c ba8d d13e 0016 b1ba 16d8 f7bc
00000270: c56d 58bd 417f b4be b931 c13e 73f0 263e
00000280: 679e c93f ce3f 1e3f d6c8 b93d 3c66 37be
00000290: f179 d4bd 8c1d 61bf 4818 afbe f58d 81bf
000002a0: b0c2 103c edc1 ed3d 01bc e0bd 93e4 613e
000002b0: 33ae 0abd 0678 ee3f e991 f83e ae4c 113f
000002c0: ca33 56bb 9946 b3bd 74e0 42bd 916d 64bf
000002d0: 7d04 cdbc c241 b93e e205 39be 1b57 95be
000002e0: d354 87ba 1956 013c 22ce 683d af8f d6be
000002f0: eb42 543e 3518 87bc 5c65 353e a7f3 b73d
00000300: cbbe bebb 4876 32bf f31e aabc e33c 7cbb
00000310: 820f 883d e257 2ebf e643 e33b 71eb 33bd
00000320: bb96 67be 02aa 21be 3b8f 283d 5d0b 0abf
00000330: 9ea8 e43d 5e71 e1bd 2e70 90bd 9c0e a7be
00000340: d16b 9a3e e6af d3bd a932 873f 4593 8e3d
00000350: 2774 5e3b cdd4 79be 027c 94bb 4347 593c
00000360: ffa8 d93e 7e22 60be bc71 363d 40bc 11bc
00000370: c77d c6be 28ef adbd db8d 66bc b956 50be
00000380: 7aaf 2bbe f3d1 43bf e994 fb3e 1184 f43e
00000390: 406f b03c c4e3 e2bc 20e1 5abe cc5d 05bd
000003a0: 9219 d53a 26ed 353f ec79 09be e547 90be
000003b0: 3ebd c4be 6432 dd3d 8563 b63c d2d1 3d3d
000003c0: 5b3c aabe 8bc4 e9bd 3665 e73b b29b d2bd
000003d0: d6a8 47be 2ead d13a 6d49 39be 56d1 49bf
000003e0: 1626 38be 28b1 88be f125 7bbe 051c 43bf
000003f0: 1ea9 acbe 04ba 10bf 1295 043e 3327 0ebc
-0.0006436293 0.032040752 0.8313928 0.025238104 -0.215517 0.29627892 0.5993936 0.08800018
-0.08574955 -0.12813568 0.0052881404 0.25749654 -0.47414306 -0.19852138 1.2589408 -0.030728748
0.41884187 -0.026953943 0.015006658 -0.0009441162 0.013351393 0.07921403 0.044931516 -0.25425285
-0.012823218 0.67998505 -0.02122232 -0.4347495 -0.38431224 0.003693051 0.5572823 -0.2051797
-0.19200702 -0.0793959 0.027215995 -0.026605843 0.18588153 -0.44429135 0.65375555 -0.31612387
-0.7760743 -0.3593659 -0.038602702 -0.0021555095 0.05432369 0.118674725 -0.013797362 -0.67847085
-1.0184371 0.000822827 -0.06285782 0.11515994 -0.20252572 0.010526535 -0.072646424 -0.15069659
0.010663599 -0.25208694 -0.006387388 0.012477945 -0.7440671 -0.20845276 -0.06621802 -0.07805196
-0.17398027 -0.15860884 0.06575448 -0.2689167 0.0137589015 -0.25503248 -0.04750978 0.016900636
0.35132766 -0.40851158 -0.19206049 -0.0017471869 -0.7041788 -0.033706106 -0.13685247 0.29865426
-0.4710064 -0.04011028 0.11067221 -0.028545115 0.24731432 0.42721486 0.19296134 -0.12296226
-0.027525757 -0.89352316 -0.9315796 -0.57670146 -0.23033287 -0.0058362815 -1.0243813 0.30179712
-0.103660814 0.024610395 -0.8811592 0.20194054 -0.7989914 0.09005269 -0.17699304 0.004066919
0.29713193 -0.26314777 0.30391824 -0.06723192 -0.051861007 -0.0011642908 0.1806823 0.028265834
0.63156796 -0.004065604 0.13326499 0.80741096 0.3433109 0.13829859 0.0059824074 -0.3368713
-0.014461545 -0.27606055 -0.02060119 -1.1226151 0.03712074 -0.37534392 0.063839994 0.052978158
-0.46162286 0.2045321 0.03066461 0.013941054 -0.28961876 -0.044104546 -0.0052224086 -0.007841244
0.12594792 0.10372232 0.0007001789 -0.0783496 0.560255 1.419145 -0.13561824 0.012755096
-0.23642355 -0.59957135 -0.3080944 0.017399082 -0.15202568 -0.2661931 -0.06323933 0.13609926
0.012235697 0.4092844 -0.0013510585 -0.030254405 -0.05283906 -0.35253337 0.37733248 0.16302662
1.5751466 0.6181611 0.090715095 -0.17910093 -0.10374821 -0.8793571 -0.34198213 -1.0121447
0.00883548 0.11609254 -0.10973359 0.2205985 -0.033857536 1.8630378 0.4854882 0.5675763
-0.0032684677 -0.087537 -0.047577336 -0.89229685 -0.025026554 0.36182982 -0.1806865 -0.2916802
-0.0010324962 0.007894062 0.05683721 -0.41906497 0.20728652 -0.016491035 0.17714447 0.0898202
-0.005821084 -0.6971173 -0.02076671 -0.003848844 0.06643583 -0.6810285 0.0069355844 -0.043925706
-0.22616093 -0.15787509 0.04115222 -0.5392359 0.11164974 -0.11007951 -0.070526466 -0.32628334
0.30160382 -0.10336284 1.0562335 0.06961683 0.0033943744 -0.24397583 -0.0045313844 0.013261619
0.42511746 -0.21888158 0.04454206 -0.00889498 -0.38767835 -0.08492881 -0.014071907 -0.20345582
-0.16766158 -0.7649223 0.49137047 0.4775701 0.021537423 -0.027696498 -0.21374941 -0.032560155
0.0016258231 0.71064985 -0.13425416 -0.2817985 -0.3842563 0.10800627 0.022264251 0.04634268
-0.33249173 -0.11414441 0.007061626 -0.10283603 -0.19498 0.0015997046 -0.18094416 -0.78835046
-0.17983279 -0.2669766 -0.24526192 -0.7621463 -0.33722776 -0.5653384 0.12947491 -0.008676338

linear_two.bias f4 [3]
00000000: 8012 13bd 84d6 a9be 904c aebe
-0.035906315 -0.33171475 -0.34042788
