survival/model/model_260.pth (torch, 17167 bytes, 4 tensors)

linear_one.weight f4 [256, 11]
000000 0a d0 e8 bd 04 93 ae bd b3 fa 00 be bc 04 29 3e
       -0.11367805 -0.08524135 -0.12595634 0.16505712
000010 40 e5 0d 3d 1f f5 6a be 54 ec 22 be cc 56 57 be
       0.034642458 -0.22945069 -0.15910465 -0.21029204
000020 f6 cd b4 bd 63 1f 4e 3b 72 7f 9c 3d 97 d7 e6 3c
       -0.088283464 0.0031451813 0.07641496 0.028178973
000030 05 ac 0d bd da 17 1b bd dc 2d ec 3e 6b 3c 00 3f
       -0.03458788 -0.037864543 0.46128738 0.5009219
000040 27 5a dc be a4 e2 10 3d eb 93 ac be 6c 5f df be
       -0.4303753 0.03537239 -0.33706602 -0.4362749
000050 3a a3 0b 3f 13 e2 df 3d 4c e4 97 be bf 91 fc bc
       0.5454594 0.10931792 -0.29666364 -0.030831216
000060 05 99 79 be 27 08 2a 3e 56 4a 6a be 8c 56 1f 3e
       -0.24374779 0.16604672 -0.2287992 0.15560359
000070 32 3b d3 bd 68 48 8e be 79 8f 87 be c6 7e 95 3d
       -0.10314025 -0.27789617 -0.26476648 0.07299571
000080 b4 bb 23 be f4 d3 a5 bb 10 ae ff be 9a f5 9f bd
       -0.15989572 -0.005060667 -0.49937487 -0.07810517
000090 54 31 ee bd 88 14 69 be b3 6d a6 3d 66 34 ea ba
       -0.11630502 -0.22761738 0.08126392 -0.0017868399
0000a0 51 af 13 3e e3 73 1f 3d 93 c7 14 3e 6c 0c 1f 3d
       0.14422347 0.038928878 0.14529257 0.038830206
0000b0 26 8a ee 3d 67 91 76 3e b8 6b 3c be d9 ae c7 3d
       0.116474435 0.24078904 -0.18400466 0.097501464
0000c0 0d f8 71 3a ca 21 90 3d 85 96 6a 3d a9 c3 97 3e
       0.0009230383 0.07037695 0.057272453 0.29641464
0000d0 7f 0c 98 3e 04 c3 92 3e 61 1b 97 3e 7e 84 aa be
       0.29697034 0.2866441 0.29513076 -0.3330421
0000e0 7d b9 a6 bc 6e 22 a0 be 91 94 ad be 80 bf 8f be
       -0.02035212 -0.31276268 -0.3390241 -0.2807579
0000f0 5a 61 d5 3e 93 e8 09 be fc 17 7d 3e b5 60 e1 be
       0.41675836 -0.13467626 0.2471618 -0.44019094
000100 2f b5 c8 3d 7b 16 b6 3d 63 80 67 be 27 9d 57 3e
       0.09800183 0.088910066 -0.2260757 0.21056043
000110 62 73 a1 3d e1 f5 4c 3e fc a5 d9 be ac 86 bb be
       0.07883336 0.2001567 -0.4250945 -0.36626184
000120 13 f3 1c 3f f1 56 d3 be 96 1f 5b 3e e1 9f 5c 3e
       0.613084 -0.4127727 0.21398768 0.21545364
000130 a9 74 45 bf e7 b9 68 be 07 dd 58 be 2a 33 fa 3d
       -0.77131134 -0.22727166 -0.21178065 0.1221679
000140 58 31 47 3e 7b 79 12 bc 41 7f b8 3e ff 55 c8 bd
       0.19452417 -0.008940096 0.36034587 -0.097820275
000150 b2 aa 5d 3e 94 16 ad 3e d0 82 00 be 8c a0 dd 3e
       0.21647146 0.33806288 -0.12549901 0.4328655
000160 e4 b3 7b 3e 13 09 57 bd f4 26 b8 bd 9c 36 fb bd
       0.24580342 -0.05249889 -0.08991805 -0.12266275
000170 e2 76 3e 3e 5e 2b b7 bd 22 84 53 bd d7 4f 59 3e
       0.18600038 -0.089438185 -0.051639684 0.21221863
000180 c5 7f 0d 3d f4 a8 79 3e 1c 0e 51 bd 6a 76 06 3d
       0.03454568 0.24380857 -0.051038846 0.032827772
000190 bd 3f 9f 3e 27 0e 56 be 80 66 e6 be fe c1 f3 3e
       0.31103316 -0.20903836 -0.45000076 0.47608942
0001a0 fd 38 6f be 65 d2 ec be 4b ee 88 3e 7a 5c 98 be
       -0.23361583 -0.46254268 0.26744303 -0.29758054
0001b0 16 be 97 be 75 31 04 3f b1 a1 89 bd 17 8c b1 bd
       -0.29637212 0.51637965 -0.06720293 -0.08669298
0001c0 2a a7 89 be 8a 6a 30 be e3 2a 4e be 76 63 c0 bd
       -0.2688535 -0.17228141 -0.20133547 -0.09393971
0001d0 24 4b 28 bd e7 c5 09 bd df e5 37 3e 35 7f d8 3d
       -0.041087285 -0.033636 0.17958783 0.10571138
0001e0 7f 84 61 bd 00 d0 22 bc 42 87 94 be 8c 31 a1 be
       -0.055058 -0.009937286 -0.29009444 -0.31483114
0001f0 74 56 ab 3d c0 67 f4 3c 92 5d e9 3d ba 32 3d be
       0.08366099 0.029834628 0.113948 -0.18476382
000200 c0 4c 79 3c 50 32 97 bc 3d ff 51 be 6b 51 18 be
       0.0152160525 -0.018456608 -0.20507522 -0.14874808
000210 88 a1 a4 bd c1 5f 2b 3e 4a 09 d3 bd 18 b2 88 be
       -0.08038622 0.16735746 -0.10304506 -0.26698375
000220 32 b6 13 be d2 22 32 3f c3 51 3b 3f e4 12 dc 3e
       -0.14424971 0.6958438 0.73171633 0.42983162
000230 36 a5 e9 3e 6b b2 c7 be 80 8d cb be a0 67 12 3d
       0.45633858 -0.3900331 -0.39756393 0.035743356
000240 65 1b 70 3e 7b a1 54 be 17 3c 0c 3e f8 b9 1a 3d
       0.2344795 -0.20764725 0.13694797 0.03777501
000250 0f b9 9b 3d f6 ce ff 3d eb 33 d8 3e fb 72 ee 3e
       0.076036565 0.124906465 0.4222711 0.46572098
000260 b5 4e e7 3e af f6 de 3e ac 3f c8 bd a0 04 a7 bd
       0.45177236 0.4354758 -0.097777694 -0.08155179
000270 ed 06 96 3e ec 74 dd 3e f5 ea 35 be da 74 a0 3e
       0.2930216 0.43253267 -0.1776541 0.3133915
000280 a3 43 d0 be 92 18 53 be 27 61 ec 3e 36 8c 87 3e
       -0.40676603 -0.20614842 0.4616787 0.2647416
000290 19 4c d9 be 13 1c 77 3e 07 94 d1 bd a6 88 03 3e
       -0.4244087 0.24131803 -0.10233312 0.12845096
0002a0 a3 41 16 bf 33 c9 19 bf 92 14 bc 3e dd f7 c0 3e
       -0.58693904 -0.6007263 0.36734444 0.37689105
0002b0 4a f5 1d bf 11 15 37 bf d4 c7 9f 3e a4 b7 9d 3e
       -0.61702406 -0.7151652 0.31207144 0.3080417
0002c0 12 1d 15 be e1 15 7b 3e 37 09 af be 81 79 b5 3e
       -0.1456187 0.24520065 -0.34186718 0.35444263
0002d0 01 54 13 bf d0 9f 8d 3e 6b 10 29 3e c0 a4 08 be
       -0.57550055 0.2766099 0.16510169 -0.13344097
0002e0 c0 a0 34 3f 87 73 1a be 3b 5c c1 bd f4 06 4a 3e
       0.70557785 -0.15083133 -0.0944142 0.19729215
0002f0 bf ef 1b be 20 79 61 3d ab e0 5a bc 46 09 d7 3e
       -0.15228175 0.055047154 -0.013359229 0.41999263
000300 0b fb 18 3f 20 60 09 bf 28 3c 3c bc a0 26 c3 be
       0.5975806 -0.536623 -0.011488952 -0.38115406
000310 2d 33 24 bf 6b c2 ed 3e 68 87 43 3e 26 37 6c 3b
       -0.6414059 0.46437392 0.19094622 0.0036043613
000320 54 e4 bc 3d 08 37 9d 3e 6f 8d 3b 3e 2d 45 52 bd
       0.09223238 0.30706048 0.18315671 -0.051335502
000330 42 93 44 3e 43 fa a7 39 48 ef 31 3d 0b cc a1 3d
       0.191968 0.00032039182 0.043441087 0.07900246
000340 2e d0 ed bd 14 78 8f be bf 60 76 3e ec 7d 23 be
       -0.11611973 -0.280213 0.24060343 -0.15966004
000350 f9 dd 8d 3e 17 f3 29 3e 0c 9b 29 3e 3b 79 a1 3e
       0.27708414 0.16596638 0.16563052 0.31537804
000360 a2 c0 0f 3d 97 f9 27 3e 10 96 6a 3e ac 18 ea 3b
       0.03509582 0.16403805 0.22908807 0.0071440544
000370 76 30 af bd 72 62 7d bd 26 af 71 be 3c 40 9f 3d
       -0.08554165 -0.061861463 -0.2360197 0.077759236
000380 54 45 0a 3e b5 2d cf bc 1c 1b 7f 3d 38 92 db 3e
       0.13503009 -0.02529035 0.062281713 0.42884994
000390 07 36 91 3e 4d 1f a6 3e b9 62 6b 3e 2b a9 64 be
       0.28361532 0.32445756 0.22986878 -0.22330157
0003a0 a1 6e 1a bd a9 ef 55 3e 76 a9 d5 3e 15 37 84 be
       -0.03770316 0.20892204 0.4173085 -0.25823274
0003b0 ea 95 c5 be a6 eb 90 3e 1e 11 6d be 8d 61 c5 3e
       -0.38590938 0.28304785 -0.23151061 0.38550988
0003c0 b8 7c 12 3f 24 9c 39 be 26 35 33 be ae 76 03 be
       0.57221556 -0.18125969 -0.17500743 -0.12838241
0003d0 28 65 98 3d 35 cf 47 3e fd 2c 69 3e 45 87 2d bf
       0.07441169 0.19512637 0.22771068 -0.6778453
0003e0 f2 4a 21 bf 6c 58 c9 3e e2 c1 ba 3e 7b 30 f3 be
       -0.6300498 0.39325273 0.36476046 -0.47497925
0003f0 5d 0a f6 be df 6d 1d be a8 e8 34 3e 9b b7 f7 be
       -0.48054782 -0.15373944 0.17666876 -0.48382267

linear_one.bias f4 [256]
000000 49 cf aa bd a4 df 2d be 39 ed 57 be d9 fc 21 bc
       -0.08340318 -0.16979843 -0.21086587 -0.009886944
000010 cf e7 92 be d1 39 85 be 30 36 10 3d 8c cd f2 bd
       -0.2869248 -0.26020673 0.035207927 -0.11855611
000020 73 ce 05 3f b8 db 78 be ae 69 90 bd 90 91 26 3e
       0.5226814 -0.24302566 -0.07051407 0.16266465
000030 0e 7b 4a be b0 60 c1 bd a4 f0 85 be 5e e8 7b bd
       -0.19773504 -0.0944227 -0.26160157 -0.0615009
000040 57 a2 fc 3c 8d 1e 8f bd 74 01 f3 3e 5b 1c 85 bd
       0.030839128 -0.06988249 0.47462046 -0.06499549
000050 bd 84 84 bd 9e de 43 be 01 1c 9f 3e 72 1e aa 3e
       -0.0647063 -0.1912789 0.31076053 0.33226353
000060 d4 ed 70 be a5 52 28 be 98 e6 6e bd 9e 69 76 3c
       -0.23528224 -0.16437776 -0.05832538 0.01503983
000070 c9 90 3c 3e 4a 7b 26 be 41 b6 5c be 61 ee 92 bd
       0.18414606 -0.16257969 -0.215539 -0.071743734
000080 95 79 e9 3d 27 2e 1e 3e 62 96 98 be 14 d7 a4 3e
       0.11400143 0.15447293 -0.29802233 0.32195342
000090 ef 9b 10 3e d2 ac b2 3e 74 5e 1b be 36 ed 81 3d
       0.14121984 0.34897476 -0.1517275 0.063440725
0000a0 5b 74 95 3d a5 3f 05 be cb 08 bb 3d 03 10 0a be
       0.07297584 -0.1301256 0.091325365 -0.1348267
0000b0 9f 68 86 be e3 46 0f be a8 08 80 be 65 9b 0f 3e
       -0.26251695 -0.13991885 -0.25006604 0.14024122
0000c0 77 02 50 bd fd 50 1a bd 57 3d 08 3f 95 6e dd be
       -0.0507836 -0.037674893 0.532186 -0.4324843
0000d0 31 f0 dd bd 15 b3 b8 3e c6 4e 7a 3e a8 95 ff bd
       -0.108368285 0.3607413 0.24444112 -0.124797165
0000e0 88 df 4f be a0 98 14 be a9 77 b8 3d 0c a2 f9 3d
       -0.20300114 -0.14511347 0.09007198 0.12189111
0000f0 2b dd 0f 3e 78 57 5a 3e d4 c0 09 3e 60 ad 57 3e
       0.14049213 0.21322429 0.13452464 0.21062231
000100 c0 6a 05 3e f1 98 97 be a7 3e 52 3e 61 ff 81 3e
       0.13029003 -0.29608873 0.20531712 0.2539015
000110 3f 44 0d be e7 35 39 be 4c 04 8f be 47 1d a5 be
       -0.13795565 -0.18086968 -0.27932966 -0.322489
000120 63 5a 1b be 11 ea 69 3c e8 b1 43 3e f2 6c dc bd
       -0.15171199 0.014276997 0.19110835 -0.10762967
000130 da 9a 07 3e 4a 8a 81 3e 5c 11 4d be f4 da 02 3e
       0.13242665 0.2530082 -0.20026153 0.12778836
000140 8e 3d d6 3e b1 95 46 be 2a 90 71 3e db f8 db 3e
       0.41843837 -0.1939304 0.2359015 0.429633
000150 e7 cb b4 3d 41 ca 8b 3d c6 0b 3c 3e 46 77 61 be
       0.08827954 0.06825686 0.18363866 -0.22018155
000160 d6 36 bd 3e 51 47 a1 3e 83 0a 81 39 90 1b f7 3e
       0.369559 0.31499723 0.0002461263 0.48263216
000170 88 f7 34 be d1 fd 31 bc 68 5a 66 3e d3 11 61 3d
       -0.1767255 -0.010863737 0.22495425 0.05494864
000180 cd aa fc 3d 58 90 02 3e 7e 2f 0b 3e a3 a7 c9 3e
       0.12337265 0.12750375 0.13592336 0.3938571
000190 40 2b 99 3d 0d 17 32 3c b1 84 03 be 6d bf 34 be
       0.074789524 0.010869754 -0.12843587 -0.17651148
0001a0 c7 f7 29 be 96 59 53 3e fb f8 f1 3e b1 59 86 3c
       -0.16598426 0.20639643 0.4726027 0.01640019
0001b0 dd f0 e2 bc b0 df e3 bd 45 0b a2 bd 00 90 ce 3e
       -0.027702743 -0.111266494 -0.07912306 0.40344238
0001c0 0c b4 04 bd 95 5a 18 be b0 2e b7 be 6b 70 23 3e
       -0.03239827 -0.14878304 -0.35777807 0.15960853
0001d0 98 25 b1 bd 75 3b 98 bd 41 30 85 3e b8 14 91 3e
       -0.086497486 -0.074332155 0.26013377 0.2833612
0001e0 d2 ba b2 bd 5e bb 96 3e ff f5 00 be a7 3b 15 3e
       -0.087270394 0.29439825 -0.1259384 0.14573537
0001f0 99 29 c6 3e f3 b0 86 3e 7e e3 4a 3e 8c 45 8d be
       0.38703611 0.26306877 0.19813344 -0.27592123
000200 b4 6d 0c bd f6 39 e0 3e f1 25 9c be 6e d4 e5 bd
       -0.03428431 0.4379422 -0.30497697 -0.11222158
000210 bf f5 84 bd e7 34 c6 3d a7 a1 9c be df 4d d8 ba
       -0.06492185 0.09678059 -0.3059208 -0.00165027
000220 1b 1c 1a 3e 19 7f 85 be 6f 21 94 bd 06 1a dc 3e
       0.15049784 -0.2607353 -0.072329395 0.42988604
000230 f3 2d f3 bc be ce 99 be 04 f0 0d 3f 98 57 15 bd
       -0.029684996 -0.30040544 0.5544436 -0.03646049
000240 93 4d 53 3e 51 9e ad bd df 1e 33 3e d4 45 69 3e
       0.20635061 -0.08477462 0.17492245 0.22780544
000250 cf 0f a8 3e 76 55 c1 bc 47 4c e7 3b 72 e0 ba bd
       0.3282456 -0.023600321 0.0070586535 -0.09124841
000260 7f 53 4f bc 0f 16 83 be 69 0c 4b be 6f 00 bd 3e
       -0.012654184 -0.25602767 -0.19828953 0.36914393
000270 cb 2f 72 3e 40 6f 3e 3d 19 05 db 3d c6 70 12 3c
       0.23651044 0.046492815 0.10694332 0.00893802
000280 00 72 49 3e 2e ef 58 be d6 02 fd 3a 31 af 15 3f
       0.19672394 -0.2118499 0.0019303213 0.58470446
000290 e7 bc 91 be af 43 73 be 23 91 b6 3e c0 66 05 be
       -0.28464434 -0.23756288 0.35657606 -0.13027477
0002a0 9e 24 db ba 60 b7 60 3d 3a 0e ff 3d 85 0d ba 3d
       -0.0016719287 0.05486238 0.124538854 0.0908461
0002b0 af cc 58 be ba 79 d4 bd 9c e2 89 3d 25 c1 86 be
       -0.2117183 -0.1037478 0.067326754 -0.26319233
0002c0 ce 31 d1 bd c3 8e 20 be 24 8b fe 3d 27 65 05 be
       -0.102145776 -0.1567946 0.12428883 -0.13026868
0002d0 d0 be e1 3e 64 01 57 be c0 91 fd 3c 91 09 eb 3e
       0.4409089 -0.20996624 0.030953288 0.45905736
0002e0 65 c0 e9 bd 87 2e af 3e 4b 80 31 be c5 9c 55 3e
       -0.114136495 0.34215185 -0.17334096 0.20860584
0002f0 41 99 4e be 0a 07 35 3d 3b cc 9b 3d 7e c3 29 3d
       -0.20175649 0.044196166 0.07607313 0.0414462
000300 ab d3 62 3c 4a f6 b2 bc 5e 17 89 be b7 12 e1 bc
       0.013844411 -0.021845955 -0.2677564 -0.027474744
000310 8a ab 09 3c f3 e6 a8 3e 56 03 d1 3d 52 a9 93 be
       0.0084027145 0.329887 0.102057144 -0.2884012
000320 2c e0 97 be dd 8f 71 be 14 a3 30 be b3 eb 06 be
       -0.29663217 -0.23590036 -0.1724971 -0.1317585
000330 98 61 75 be e3 2b 57 3e 37 6d 6e be 78 72 98 3e
       -0.2396301 0.21012835 -0.2328385 0.29774833
000340 f8 d1 c4 bd fa 2d 6f 3e a9 32 07 be f7 79 39 be
       -0.09610361 0.23357382 -0.13202919 -0.18112932
000350 d5 09 58 3e 55 c2 10 3e d0 6f 0d bd 40 1c 9b 3b
       0.210975 0.14136632 -0.03453046 0.0047335923
000360 bf 68 66 3e 3a 9a 3c be 06 64 9b 3e 0f 71 d1 3e
       0.22500895 -0.18418208 0.3034975 0.4090657
000370 70 90 4a be ec 54 57 be 60 3d d6 3d 15 11 aa 3c
       -0.19781661 -0.21028489 0.10460925 0.020760098
000380 3d 71 08 3e 22 99 af be 95 cc c5 3e dc 3b c1 bd
       0.13324447 -0.3429652 0.38632646 -0.094352454
000390 2a 7f 9b bd ad e5 83 be 0a e3 49 3c 8b 3a f0 bc
       -0.07592614 -0.25761166 0.012322197 -0.02932479
0003a0 d4 87 b6 be a2 88 db bc ad 9c 31 3e 40 64 2f bd
       -0.35650504 -0.02679855 0.17344923 -0.042820215
0003b0 b2 71 8d be e6 b8 c8 bc 6a eb 82 3d f9 a2 b5 be
       -0.27625805 -0.024502229 0.06392558 -0.354759
0003c0 df d8 a6 be 4a 1f 87 3d 99 91 93 be 8b 83 6f 3e
       -0.32587335 0.06597765 -0.2882202 0.23390023
0003d0 12 a8 0c be 35 d5 c3 bd e0 64 b9 3d aa 40 0e 3f
       -0.13735989 -0.095621504 0.090524435 0.5556742
0003e0 91 1f 26 3c e6 66 7d 3c c0 5f 37 3d e0 53 92 bd
       0.010139362 0.015466427 0.04476905 -0.07144904
0003f0 0b a8 c6 3c 36 2a 0f 3f 2f 45 37 3d 8b c0 05 3f
       0.024250051 0.55923784 0.044743713 0.5224692

linear_two.weight f4 [3, 256]
000000 65 f6 31 bd a8 9d 34 bf 3d af 8d bd ac cb b3 3b
       -0.04344787 -0.70553064 -0.0691819 0.005486926
000010 98 1b 01 be 1b 99 4d 3c d3 b4 63 bf dd d5 9d bd
       -0.12608182 0.01254871 -0.8894779 -0.07706807
000020 26 6c b9 bd b1 00 82 be 61 0d 38 bd 0c fe ea bc
       -0.09053831 -0.25391153 -0.044934634 -0.028685592
000030 f3 96 46 bf 38 ce 60 be 3c 0c c2 bc 77 ae d7 3e
       -0.7757408 -0.21953666 -0.023687474 0.42125294
000040 49 ed df be 21 c1 4d bf 57 3c a0 bd 09 eb 47 bd
       -0.43735722 -0.80372816 -0.07824009 -0.04880813
000050 0f 12 23 bd 60 34 15 bf dc d8 b9 3e 46 06 bb bd
       -0.039812144 -0.5828304 0.36298263 -0.09132056
000060 1f 8a b1 3c e0 e7 44 bc be c9 84 bf 5c de 7c be
       0.021672307 -0.012018174 -1.0374067 -0.24694198
000070 30 e4 58 bf 33 de 19 bd af 04 1b 3e 02 9b f8 be
       -0.84723186 -0.03756542 0.15138505 -0.48555762
000080 d0 dd 5b be 1f 26 09 bf 9e 8a 3c be 26 cf 3a bf
       -0.21471334 -0.53573793 -0.18412253 -0.72972333
000090 92 91 55 bf 51 0c c0 bd f5 bc 80 bd 24 92 34 bc
       -0.8342525 -0.09377349 -0.06286041 -0.011021171
0000a0 48 0e 74 3d be 80 07 bd be 9b 0b bd 72 e1 f2 be
       0.059583932 -0.033081762 -0.034084074 -0.47437626
0000b0 15 a2 de 3c 91 dd b3 bc b3 42 14 be 51 3d 1f be
       0.027176896 -0.021956237 -0.14478569 -0.15550734
0000c0 93 c2 d6 be b6 60 82 bd 35 8d de bd 2c 3a c5 bc
       -0.41945323 -0.063661024 -0.10866777 -0.02407559
0000d0 72 75 f3 3d b0 f5 f7 bd 73 37 6e bd b9 97 90 bd
       0.11887635 -0.12107408 -0.05815835 -0.07060189
0000e0 91 2b 31 3e 8a 51 af bc 87 44 f7 be d8 bb a6 be
       0.17301776 -0.021401186 -0.4829447 -0.32565188
0000f0 f4 17 ce bd e7 d5 e3 bd 54 e7 42 bd 35 6a 8f bd
       -0.100631624 -0.11124783 -0.047583893 -0.07002679
000100 2c 72 82 be c1 d5 f6 3e 76 26 27 bf ef d6 91 be
       -0.2547773 0.48209956 -0.6529306 -0.28484294
000110 6a 8f d6 be 43 b3 d2 3e 12 29 3d be 03 78 92 3e
       -0.4190629 0.4115239 -0.18472698 0.28607187
000120 20 7a e0 bc 97 a4 e0 bb 7a 09 97 bd a3 a9 8d bd
       -0.027401984 -0.006855558 -0.073748544 -0.06917121
000130 a1 d1 f7 3d a4 0a d7 be 27 3c ad bc 1b 86 03 bd
       0.121005304 -0.42000306 -0.021146847 -0.032110315
000140 2a c2 95 bd a7 05 10 bf b6 0e 36 bf b9 fc 3b bf
       -0.073124245 -0.56258625 -0.711162 -0.734325
000150 21 f5 18 bf 4a dd 93 3e 59 4a 85 3e e4 be 31 b9
       -0.5974904 0.28879768 0.26033285 -0.00016951148
000160 48 8e 42 be 03 6a 48 bf 71 63 57 be f0 f6 58 be
       -0.18999588 -0.7828676 -0.21034028 -0.21187949
000170 f5 89 90 bf 49 93 59 3e d3 aa b1 be d2 8a 2e bf
       -1.1292101 0.21247591 -0.3470064 -0.68180573
000180 61 f8 8f bd a9 ad 61 3c e6 f3 b3 be d8 ac a0 be
       -0.070297964 0.013774314 -0.35147017 -0.3138187
000190 f4 c1 5c bd 4e 1e b9 bd 89 03 af bc 8e f3 09 3f
       -0.053895906 -0.09038983 -0.02136399 0.5388726
0001a0 4d b8 25 be 8b 33 91 bd 2b 59 89 bf bb fc 9e 3c
       -0.16183586 -0.07089909 -1.0730337 0.01940762
0001b0 ac fa e8 bc 59 51 fc 3e bb 55 a3 3e 1c ac ab bd
       -0.028439842 0.49280813 0.31901345 -0.08382437
0001c0 00 ba 4a be 3e ba b8 3d 11 11 c4 be 2a af c3 3e
       -0.19797516 0.09019898 -0.3829427 0.38219577
0001d0 13 21 75 3d aa 17 c8 bd c9 0e a2 3d 74 e2 a0 bb
       0.059845995 -0.097701386 0.07912976 -0.004909808
0001e0 7e af c6 be 1b 24 e2 bd 18 fc f2 bc 19 7f 88 be
       -0.38805765 -0.11042043 -0.029661223 -0.26659468
0001f0 e7 a8 64 bd 41 c4 27 be f1 1c 5e bd 30 ef c1 3c
       -0.05582514 -0.16383459 -0.05422682 0.023673624
000200 eb 4d 5c bf 7b a3 9f bf a7 3a 99 bd a9 6c bb b9
       -0.86056393 -1.2471765 -0.0748189 -0.00035748378
000210 df 32 d2 bd fd 88 4b bd 58 39 78 bd 8e 45 a8 3e
       -0.10263609 -0.04969119 -0.060601562 0.32865566
000220 08 4a 16 bf 44 d6 3a bd 90 5a 33 bf 99 ab 3d be
       -0.5870671 -0.045614496 -0.7006006 -0.1852249
000230 ff 13 95 be 20 4d 13 bc c4 75 be bd d2 4d d6 be
       -0.29116818 -0.008990556 -0.09299806 -0.41856247
000240 00 f4 13 bf f6 72 b2 3d 86 37 5f bf 53 f8 43 bf
       -0.5779419 0.08713333 -0.871941 -0.7655079
000250 38 f9 5b be 4d 23 77 bd 86 76 2e bc d2 a7 77 3c
       -0.21481788 -0.0603364 -0.010648375 0.015115695
000260 b3 e0 39 be 98 8f 56 bc a0 66 3d bf 32 66 d6 bd
       -0.18152122 -0.013095759 -0.7398472 -0.10468711
000270 cf eb 86 bd 88 be 12 be 3b b0 2b bd c3 ac 9e 3b
       -0.06587946 -0.14330494 -0.041916113 0.004842372
000280 96 ea a8 be 60 da 80 bb ba 45 a1 bd 67 d1 d9 bd
       -0.32991475 -0.0039322823 -0.078746274 -0.106356435
000290 8c bc 23 bd 76 a9 70 bb 88 58 0f bf 3b 0c 1c bf
       -0.039974734 -0.00367221 -0.5599446 -0.6095616
0002a0 48 56 81 bd 50 88 1c 3e ea cc e2 be 5c 05 04 3d
       -0.06315285 0.15286374 -0.44296962 0.032231674
0002b0 e3 57 0a 3c 29 fd d3 be 23 52 c9 3e d6 3b 23 3d
       0.008443805 -0.41404083 0.39320478 0.039851986
0002c0 b8 99 16 bf 57 7a ed bd 51 92 5a 3e 06 ea 80 be
       -0.58828306 -0.115956 0.21344878 -0.25178546
0002d0 db 92 0c be ff 29 fd 3d f4 00 95 bc cc 64 c0 bd
       -0.13727896 0.12361526 -0.018188931 -0.093942255
0002e0 93 92 a3 be c4 8c ab be 52 4c 70 bd 15 a0 fe bb
       -0.31947765 -0.33505833 -0.058666535 -0.007770548
0002f0 04 ba 95 3c c6 bd 3f bf 83 56 6e bd 64 25 e6 bc
       0.018277176 -0.74898946 -0.058187973 -0.028094001
000300 0c 00 80 bd 47 80 dc be 3c 33 2d 3d 9e ae b0 be
       -0.06250009 -0.43066618 0.04228519 -0.34508222
000310 87 92 42 bd d3 fe 50 be 21 c2 79 bd da 32 fb 3e
       -0.04750302 -0.20409708 -0.06097615 0.49062234
000320 59 5a 19 3b 89 ec 18 bc f2 64 31 be 88 e2 5f 3c
       0.0023399799 -0.009333738 -0.17323664 0.013664849
000330 ba 52 a8 bc ee 0c df be 79 b4 05 3e 9d 5a a9 be
       -0.02054726 -0.43564552 0.13057126 -0.33076945
000340 5f 29 74 3c ec 0a 5e be 31 96 a6 be 5b 7b 03 bd
       0.014902442 -0.21683854 -0.32536462 -0.032100063
000350 41 36 2f 3c d2 77 fe 3d d4 7d ba 3e 28 3b 91 3d
       0.0106940875 0.12425198 0.36424124 0.07091361
000360 73 72 76 bc d7 9d ee 3e a3 b0 32 3d 31 3e 21 bf
       -0.015041935 0.46604797 0.043625485 -0.6298552
000370 6e 5c df be 60 55 e1 39 b4 9b 96 be 13 5c 96 be
       -0.43625206 0.00042978954 -0.29415667 -0.29367122
000380 0a bf a0 3e e6 53 9b be 21 4a d1 bd 5c e2 2a be
       0.3139575 -0.30337447 -0.10219217 -0.16687912
000390 cc ee cd be 47 41 39 bc 14 3a ea be b4 3f e2 bd
       -0.4022125 -0.011307067 -0.45747435 -0.11047307
0003a0 4f f6 ac 3e 00 f0 13 be 39 9d f1 be fa a9 a1 bc
       0.3378167 -0.14447021 -0.47190264 -0.019734371
0003b0 3f 2e fe 3d 2a d1 c1 bc 46 c1 40 3d b5 b2 1c bc
       0.124111645 -0.023659308 0.04705932 -0.009564091
0003c0 3c 81 57 3d 8a 0d b2 bd db 1d 58 3e c7 bf 9f be
       0.052613482 -0.086939886 0.21105139 -0.31201002
0003d0 93 d4 b4 3e cd 6e 8b 3c 14 46 33 3e 8a ed 5e bf
       0.3531843 0.017020607 0.17507201 -0.87081206
0003e0 aa 92 64 be 0b 6f 18 bf e0 2f 44 3d 5d 5c 87 bd
       -0.22321573 -0.5954444 0.04789722 -0.06609414
0003f0 32 44 a8 bd c5 51 1e bf 43 6e 03 3e 0a 2d 9a be
       -0.08216132 -0.6184352 0.1283503 -0.30112487

linear_two.bias f4 [3]
000000 be 06 2c be 91 32 4e be 44 7f 3d be
       -0.16799447 -0.20136477 -0.18505579
