survival/model/model204games.pth (torch, 17167 bytes, 4 tensors)

linear_one.weight f4 [256, 11]
-0.1115022 0.32445368 -0.20043685 0.14836536 -0.62914217 0.47018182 -0.33229813 -0.7200285
-0.0457409 0.2627579 -0.55292153 0.2342782 0.051932544 0.1318242 0.31096658 0.27892715
-0.54451346 0.23202457 0.11871785 0.045683697 -0.70690626 -0.0711974 -0.041709524 0.050036576
0.34655303 -0.42382652 -0.47283608 0.4005046 0.22280629 -0.6247427 -0.6706237 -0.0011762532
0.0746097 -0.064925164 0.17853647 -0.07490166 -0.3187012 0.13356826 -0.13576941 0.25279018
-0.2838668 0.06674893 -0.59254766 -0.13805108 0.25223246 0.18071087 -0.15419172 0.0053488514
-0.6961855 0.26843926 -0.50241584 -0.6552252 -0.25059903 0.30301082 -0.50651366 0.3013907
-0.08480716 0.5590014 0.25939772 -0.39364225 0.07525301 0.1431817 -0.051417336 -0.37410742
-0.5040897 -0.3028944 0.21914569 0.1418731 -0.121797055 0.3055293 -0.27300513 0.040024996
-0.40151617 -0.3115122 0.18087357 -0.076792285 0.4348276 0.11533615 -0.24928069 -0.11319992
-0.064388946 -0.42972565 0.1592462 0.3396605 0.21383487 0.42876646 -0.044178065 -0.38508978
-0.26939785 0.2078679 -0.316275 -0.16796587 -0.1359351 0.15091246 0.23186798 -0.037079412
-0.25181505 0.012686988 -0.13911821 -0.13169011 -0.051572457 0.28971985 0.47387928 0.3851838
-0.35115618 -0.5313454 0.48715496 0.41822913 -0.47637308 -0.34856516 -0.22069164 0.1971931
-0.09787025 -0.18667684 0.17766279 -0.5036795 0.6268703 0.42043617 -0.14646222 -0.16390656
-0.53765273 -0.1469933 -0.2654751 -0.3088021 0.10763852 0.23416921 0.24555208 -0.0804182
-0.10081149 0.17914751 -0.28040925 0.12478756 0.12789802 0.18856628 -0.042326298 0.2922766
0.45792958 -0.0061846436 -0.42320698 -0.39506498 -0.57226425 -0.05714121 0.35556415 0.21881601
-0.21786216 0.15461136 0.39933193 -0.4112661 -0.45807362 0.18424335 0.3714423 -0.44076008
-0.17535701 -0.51878613 -0.25637373 -0.30920193 -0.1340874 -0.01228782 -0.23339437 0.063443355
0.13228324 0.2001238 0.18197578 0.06898498 0.039385144 -0.07954303 0.25850186 0.097929806
0.40172896 -0.32998908 0.46778935 -0.37854996 0.18502803 -0.60094166 -0.6365487 0.2587451
-0.3972494 0.31215677 -0.12611413 0.40072578 -0.057675995 -0.104424246 0.12559627 -0.19399597
0.07325785 0.00866376 -0.13135147 -0.27909595 -0.2371265 -0.26652703 -0.22383097 -0.103895605
-0.019660592 -0.23149484 -0.27012524 0.2767678 0.008294493 0.17445947 -0.14618266 -0.23957738
0.13955355 0.3801614 -0.06672075 -0.4407474 0.08558801 -0.116636835 0.52939135 -0.4068698
0.1758817 0.13657153 0.158769 0.012927009 0.021697301 0.025967592 0.22984551 0.22303505
0.069541745 0.039976154 -0.57092756 -0.5719149 -0.0034496414 -0.15587689 -0.015141575 0.0022278433
-0.3733006 0.50231445 -0.08894001 0.014926693 0.49698535 -0.37757415 0.15840758 0.3091936
0.039877255 0.088401824 -0.12486633 0.27257726 0.27967128 -0.17543074 0.01394545 -0.33271688
-0.3408044 -0.13620791 0.5379846 0.057604887 0.52130914 0.38306078 -0.20991023 0.10763393
-0.46968228 -0.19353224 -0.48899922 -0.016960572 -0.4728344 -0.22000751 -0.26554608 -0.17783743
00000000: 445b e4bd cb1e a63e 513f 4dbe 17ed 173e
00000010: 760f 21bf acbb f03e fb22 aabe ca53 38bf
00000020: cf5a 3bbd 3488 863e 448c 0dbf a0e6 6f3e
00000030: 38b7 543d ecfc 063e 0337 9f3e 8acf 8e3e
00000040: 3c65 0bbf d997 6d3e 5822 f33d d41e 3b3d
00000050: cff7 34bf f1cf 91bd 9bd7 2abd 27f3 4c3d
00000060: 666f b13e caff d8be 9217 f2be f00e cd3e
00000070: 5527 643e 23ef 1fbf ffad 2bbf 822c 9aba
00000080: f8cc 983d 7cf7 84bd 44d2 363e 0b66 99bd
00000090: ce2c a3be 1ec6 083e 2307 0bbe b76d 813e
000000a0: fd56 91be aab3 883d 34b1 17bf 435d 0dbe
000000b0: 9d24 813e 450c 393e 6fe4 1dbe 6b45 af3b
000000c0: 3739 32bf df70 893e 539e 00bf d7bc 27bf
000000d0: 844e 80be 3c24 9b3e e1aa 01bf e24f 9a3e
000000e0: 60af adbd b71a 0f3f c7cf 843e 7a8b c9be
000000f0: 401e 9a3d 399e 123e fc9a 52bd 028b bfbe
00000100: 060c 01bf fa14 9bbe ba67 603e 2f47 113e
00000110: bc70 f9bd 566e 9c3e 54c7 8bbe 40f1 233d
00000120: 8793 cdbe 877e 9fbe ec36 393e 4645 9dbd
00000130: b9a1 de3e 5c35 ec3d 7043 7fbe 5cd5 e7bd
00000140: 5ade 83bd 0005 dcbe 7011 233e fbe7 ad3e
00000150: 87f7 5a3e 4787 db3e 0ff4 34bd 7d2a c5be
00000160: 84ee 89be 53db 543e ccee a1be 3fff 2bbe
00000170: 9232 0bbe cc88 1a3e cd6e 6d3e 95e0 17bd
00000180: e7ed 80be 16dd 4f3c 0175 0ebe c6d9 06be
00000190: a43d 53bd 2956 943e 4ea0 f23e d036 c53e
000001a0: beca b3be 4106 08bf 606c f93e 2122 d63e
000001b0: 2ce7 f3be 2277 b2be fdfc 61be fdec 493e
000001c0: 3370 c8bd 3728 3fbe 3ced 353e 24f1 00bf
000001d0: 927a 203f 6943 d73e 31fa 15be 1fd7 27be
000001e0: 9ca3 09bf 6985 16be 5aec 87be 4f1b 9ebe
000001f0: 9671 dc3d 0eca 6f3e 0172 7b3e 4cb2 a4bd
00000200: 4176 cebd 7272 373e cd91 8fbe 9f90 ff3d
00000210: b3f7 023e 8517 413e 575e 2dbd 47a5 953e
00000220: bf75 ea3e 8da8 cabb 96ae d8be f545 cabe
00000230: e97f 12bf e70c 6abd 810c b63e 4e11 603e
00000240: 4217 5fbe 7152 1e3e 3c75 cc3e 7891 d2be
00000250: a088 eabe 4aaa 3c3e af2d be3e 4eab e1be
00000260: ca90 33be 2bcf 04bf 6b43 83be b74f 9ebe
00000270: 354e 09be da52 49bc effe 6ebe 97ee 813d
00000280: 4275 073e 41ed 4c3e dc57 3a3e ff47 8d3d
00000290: 5152 213d 75e7 a2bd 5b5a 843e 6c8f c83d
000002a0: 6baf cd3e 54f4 a8be 1682 ef3e 4dd1 c1be
000002b0: fd77 3d3e 50d7 19bf dbf4 22bf 3d7a 843e
000002c0: 4664 cbbe 03d3 9f3e 1024 01be ee2b cd3e
000002d0: aa3d 6cbd 61dc d5bd 4f9c 003e e1a6 46be
000002e0: 3608 963d 71f2 0d3c 0081 06be aae5 8ebe
000002f0: 4ad1 72be 3b76 88be f233 65be 38c7 d4bd
00000300: 400f a1bc fc0c 6dbe db4d 8abe 82b4 8d3e
00000310: a0e5 073c 81a5 323e e8b0 15be c653 75be
00000320: 20e7 0e3e 84a4 c23e e3a4 88bd a5a9 e1be
00000330: c448 af3d 4bdf eebd 3186 073f 3d51 d0be
00000340: 551a 343e 68d9 0b3e 5794 223e cecb 533c
00000350: 8abe b13c fdb9 d43c 9f5c 6b3e 4d63 643e
00000360: e76b 8e3d 09be 233d 4f28 12bf 0469 12bf
00000370: 6113 62bb 319e 1fbe 5e14 78bc 0201 123b
00000380: 4221 bfbe ae97 003f 2e26 b6bd 178f 743c
00000390: dd74 fe3e 6651 c1be 9935 223e a04e 9e3e
000003a0: 5556 233d 040c b53d ebb9 ffbd 3f8f 8b3e
000003b0: 1331 8f3e 1ea4 33be 757b 643c de59 aabe
000003c0: ea7d aebe 167a 0bbe 5cb9 093f 1af3 6b3d
000003d0: 8474 053f 8b20 c43e b5f2 56be 2e6f dc3d
000003e0: 327a f0be 512d 46be 1b5e fabe e6f0 8abc
000003f0: 5a17 f2be a649 61be a8f5 87be 041b 36be

linear_one.bias f4 [256]
0.2371495 0.1122623 0.3743993 0.48045105 0.06714058 0.32102892 -0.2857755 0.09712645
-0.16001983 -0.10707097 -0.052912742 0.19922893 -0.22644362 -0.13476516 -0.13518935 -0.119882666
0.20056178 0.114606 -0.08691506 -0.14306985 -0.048975196 0.68059903 0.5490113 0.04816716
0.18398778 0.16399513 0.079536065 0.31298167 0.041483372 -0.046528794 -0.17613524 0.5412847
-0.017093346 -0.23923792 -0.24336706 -0.14649586 0.021559924 0.18314019 -0.048133623 -0.12889175
0.13919567 -0.023595894 -0.20482592 -0.10743213 -0.2647774 -0.18425505 -0.17446989 -0.06582935
0.7465629 -0.06861237 -0.029414834 -0.10670702 0.08883131 -0.24854325 0.102136396 -0.18115814
-0.15746425 -0.2661458 -0.08712424 0.2232302 0.17665775 0.03331622 -0.26186216 -0.14730784
0.11974262 -0.3891557 0.14017937 -0.04150243 -0.15983213 -0.017051877 -0.081085846 0.21987565
-0.13131867 0.25777143 0.37603778 -0.014172069 0.08645487 0.3166583 -0.08933445 -0.22794345
-0.34099564 0.17568058 -0.1455321 0.50491774 -0.35699084 -0.15731156 0.07377183 -0.027768388
0.049613815 0.30936304 -0.05423713 -0.24764234 0.1752811 0.07577723 -0.09423405 -0.0960573
0.4195704 0.07288742 1.1741271 -0.31548026 -0.20733193 -0.33392897 -0.09811306 -0.07396175
-0.11052746 0.19040564 0.8848665 0.22706512 -0.14756477 -0.09158884 -0.30878758 -0.17400272
0.2858843 -0.31374586 -0.004728873 -0.44518632 -0.16776301 -0.27095035 -0.1522935 -0.06866583
0.06067425 0.82344335 -0.24102637 -0.14879064 -0.22640827 0.5779754 0.07691841 0.3209585
-0.08167867 -0.038690384 -0.33432773 0.16939026 -0.07653831 0.22106063 0.5672083 0.21807648
-0.018429827 0.7922096 0.95883113 -0.32394728 -0.09062235 -0.0415056 -0.051082734 -0.21746728
-0.2820853 -0.04682738 -0.14664504 0.08434093 -0.37606058 0.59069 -0.1669779 0.4299381
-0.26622695 -0.2526197 0.17687431 -0.22982264 0.00911432 -0.18280728 -0.24345446 -0.30071783
0.2821886 -0.22101618 -0.20762886 -0.41547674 -0.2078594 0.2430369 -0.22619009 0.21063758
1.1185254 0.02190453 0.15087667 -0.07950623 0.35667324 0.09010439 -0.023509119 -0.34373072
-0.29831123 -0.0015085047 -0.25398535 0.12756865 -0.2530265 -0.2089959 0.08073697 -0.12120287
-0.29434606 0.20686385 -0.4099758 0.02396144 0.04946001 0.67469454 0.059267282 0.15026398
0.12963589 -0.005780407 1.080349 0.04892895 0.30895853 -0.027384048 0.19196759 0.06597268
0.024105333 1.2155092 1.1687591 -0.23321755 0.019839482 -0.22244938 0.18579397 0.9564463
0.2869608 -0.34531248 0.77579874 0.16472627 0.15026699 0.10391267 0.04986236 0.45266372
-0.23299561 0.43925261 0.11250788 0.13439329 0.060410615 -0.1922871 0.13722233 0.029090423
-0.030753419 0.95504653 0.20181529 0.12000165 -0.06841882 -0.12271169 -0.13630654 -0.26928747
-0.097553656 0.029136145 0.73206085 0.10212523 -0.15479761 0.36818022 -0.23882054 0.19255617
0.08084567 0.084419906 0.22919358 -0.15984742 -0.26244217 0.16040589 -0.38156697 -0.2213429
0.3141015 0.56973356 0.15142559 -0.23670831 -0.13752429 0.197211 0.24475674 -0.010609896
00000000: 52d7 723e c7e9 e53d 44b1 bf3e aefd f53e
00000010: 0081 893d e75d a43e 2b51 92be 3bea c63d
00000020: 3ddc 23be 0648 dbbd 08bb 58bd ab02 4c3e
00000030: d6e0 67be e1ff 09be 146f 0abe 0b85 f5bd
00000040: 1160 4d3e 8db6 ea3d 8600 b2bd e780 12be
00000050: 379a 48bd bd3b 2e3f 018c 0c3f ee4a 453d
00000060: 4b67 3c3e 57ee 273e cee3 a23d 223f a03e
00000070: 78ea 293d fa94 3ebd cc5c 34be a291 0a3f
00000080: 5807 8cbc c9fa 74be 3735 79be 0303 16be
00000090: 709e b03c 1a89 3b3e c327 45bd 33fc 03be
000000a0: 4f89 0e3e 2d4c c1bc e3bd 51be 6005 dcbd
000000b0: e790 87be 5bad 3cbe 3ca8 32be 8ad1 86bd
000000c0: bf1e 3f3f a484 8cbd 61f7 f0bc 3689 dabd
000000d0: 31ed b53d 1f82 7ebe e32c d13d 8581 39be
000000e0: 4f3e 21be 4344 88be 326e b2bd 7596 643e
000000f0: c5e5 343e 9776 083d cc12 86be ded7 16be
00000100: 9e3b f53d 6a3f c7be 2e8b 0f3e 74fe 29bd
00000110: 09ab 23be 61b0 8bbc 5610 a6bd 1527 613e
00000120: 6778 06be 9efa 833e 0688 c03e f731 68bc
00000130: 400f b13d 0921 a23e fbf4 b6bd 026a 69be
00000140: fb96 aebe 9ce5 333e 5e06 15be 4a42 013f
00000150: 81c7 b6be 4816 21be af15 973d 887a e3bc
00000160: db37 4b3d d564 9e3e c127 5ebd f495 7dbe
00000170: e47c 333e 1831 9b3d c8fd c0bd b1b9 c4bd
00000180: eed1 d63e 0046 953d cc49 963f a186 a1be
00000190: d24e 54be bdf8 aabe 80ef c8bd 4279 97bd
000001a0: 395c e2bd b2f9 423e 9c86 623f c283 683e
000001b0: 381b 17be ee92 bbbd 6819 9ebe c52d 32be
000001c0: 6d5f 923e 4ca3 a0be a9f4 9abb 76ef e3be
000001d0: 11ca 2bbe 01ba 8abe d4f2 1bbe aca0 8cbd
000001e0: 9085 783d 2fcd 523f 9ecf 76be 935c 18be
000001f0: 92d7 67be 32f6 133f 6687 9d3d ac54 a43e
00000200: 2647 a7bd cf79 1ebd 012d abbe a474 2d3e
00000210: 1ec0 9cbd b85d 623e 9034 113f 714f 5f3e
00000220: 26fa 96bc 40ce 4a3f f575 753f 6bdc a5be
00000230: 3698 b9bd c701 2abd 213c 51bd beaf 5ebe
00000240: 7c6d 90be 11ce 3fbd 1e2a 16be f0ba ac3d
00000250: 038b c0be 7637 173f 41fc 2abe d920 dc3e
00000260: e64e 88be 5f57 81be 8a1e 353e a056 6bbe
00000270: 3b54 153c d531 3bbe 204c 79be b0f7 99be
00000280: 067b 903e 1152 62be a99c 54be 5eb9 d4be
00000290: 18d9 54be aade 783e 609e 67be 61b1 573e
000002a0: d72b 8f3f 2171 b33c 6a7f 1a3e 2ad4 a2bd
000002b0: e09d b63e a788 b83d 3296 c0bc 79fd afbe
000002c0: 40bc 98be 05b9 c5ba 5e0a 82be 5ba1 023e
000002d0: b08c 81be 0503 56be 6d59 a53d 3639 f8bd
000002e0: 87b4 96be 1ed4 533e 59e8 d1be c84a c43c
000002f0: 9496 4a3d c8b8 2c3f 40c2 723d cdde 193e
00000300: 45bf 043e 9269 bdbb e048 8a3f b969 483d
00000310: d02f 9e3e 8354 e0bc 2793 443e af1c 873d
00000320: 8c78 c53c ce95 9b3f e699 953f 95d0 6ebe
00000330: 6986 a23c c5c9 63be c640 3e3e aad9 743f
00000340: 87ec 923e cccc b0be bf9a 463f 01ae 283e
00000350: 97df 193e 2ad0 d43d 793c 4c3d 8ac3 e73e
00000360: 6796 6ebe b8e5 e03e 886a e63d 659e 093e
00000370: 1f71 773d e9e6 44be 0384 0c3e 0a4f ee3c
00000380: 98ee fbbc ee7d 743f aba8 4e3e 6dc3 f53d
00000390: 2b1f 8cbd 4450 fbbd f193 0bbe 0ce0 89be
000003a0: 36ca c7bd edae ee3c 5768 3b3f 0827 d13d
000003b0: 4483 1ebe 1e82 bc3e 5f8d 74be 722d 453e
000003c0: 6a92 a53d 58e4 ac3d b9b1 6a3e 0baf 23be
000003d0: d25e 86be 7141 243e bf5c c3be b7a7 62be
000003e0: e9d1 a03e 0fda 113f 4f0f 1b3e aa63 72be
000003f0: 2bd3 0cbe aef1 493e 83a1 7a3e 21d5 2dbc

linear_two.weight f4 [3, 256]
0.3029471 0.32614595 0.41350025 0.22873251 0.32969183 0.26087734 -0.2636242 -0.29749334
-0.00905343 0.4630173 -0.68005604 0.099998385 -0.8982441 0.28670672 0.03381249 0.041268907
-0.002813443 0.026008096 -0.14807668 0.015692629 -0.33984366 0.18641746 0.29675686 -0.02448199
0.25783393 0.050946753 0.09690209 0.19884753 -0.03066763 -0.06554422 0.0071027433 0.18918633
0.434938 -0.0057132654 -0.011732126 -0.04872343 -0.2114259 -0.17118615 -0.20451994 0.023142612
0.48324957 0.0435367 0.3030463 -0.32545575 0.0013507158 0.07086394 -0.08340301 -0.08692296
0.24822685 -0.15390475 0.022644151 -0.009933805 0.045116164 -0.04658138 0.02436186 0.1501645
0.022986917 -0.13713583 -0.3424543 0.23601712 0.17136507 0.400437 -0.0703533 -0.4301661
0.3404848 0.0049843937 -0.4398709 -0.040249143 -0.381372 -0.290776 -0.8051575 0.48148012
-0.31753504 -0.3911382 0.17360514 0.036143586 0.0899275 0.20126718 -0.11950839 -0.689015
0.022735164 0.26905262 0.013036 0.2587311 -0.3745505 -0.021982364 -0.6869202 0.11245405
0.16920717 0.031160047 -0.55727786 -0.18405703 0.39754933 -0.012001101 0.3530005 0.15814532
0.29642838 -0.43638128 0.36294565 0.010864394 -0.011458651 -0.015953707 -0.03884778 0.2743528
-0.037695564 0.14678508 0.43314508 0.112971 0.08847368 0.15596806 -0.27375308 0.03453425
0.14659068 -0.61137784 -0.15257822 -0.091294736 -0.29180178 -0.017467113 -0.021336794 -0.29065946
0.0064655915 0.19136243 -0.04759892 0.36140594 -0.379693 0.14272335 -0.08350534 0.36800155
0.08460819 -0.052490152 -0.22485171 -0.40450105 0.105750926 -0.1277463 0.2451908 0.37376198
0.28112552 0.20184545 0.23048332 -0.019878887 0.4015614 -0.6379896 -0.11442273 0.019420722
0.029131658 -0.3349402 0.0249855 -0.33064398 -0.096633755 0.21084718 -0.29792413 0.46678987
0.086631596 -0.4310912 -0.519773 -0.3434263 -0.08311012 -0.02089401 -0.017950408 -0.18346184
0.14796107 0.009588698 0.011779239 -0.07405092 -0.035397325 0.22530153 -0.007849954 0.29082257
0.25912553 0.24136552 -0.3625252 -0.12998506 0.24848795 -0.5168149 -0.00043066405 -0.21146555
0.0011325899 -0.53607637 0.08413296 0.38155112 -0.19851637 -0.032153815 -0.18888038 -0.037562523
-0.78669524 0.15982737 -0.07280511 -0.49093866 0.0932256 0.20153125 0.36740527 -0.10289562
0.05214547 0.3941974 0.23618828 0.0060371184 0.2621714 -0.15063238 0.27476847 0.022703087
0.3195861 0.2754767 0.293991 0.27586102 -0.70008427 -0.50142646 0.038505852 0.40327662
0.25154263 0.0005405501 0.15718463 0.107105836 0.08842541 -0.5825282 0.35088623 0.1383607
-0.01331249 0.22293703 0.060133677 0.08456715 -0.42421883 -0.42650893 -0.06276235 0.15582715
0.39601833 0.280159 -0.072488725 -0.5792921 -0.008452557 0.25084296 -0.3466623 -0.06731668
0.015496045 0.18656151 0.30318385 0.003434797 -0.025428621 0.24122912 -0.18581392 0.15059778
-0.88116616 -0.4775014 0.5493893 -0.19256644 0.21000901 0.40441737 -0.20955448 -0.3935239
0.07726857 0.2295195 -0.080195524 -0.42474285 -0.7671463 0.2649933 0.13254164 -0.41592956
00000000: e21b 9b3e 9afc a63e 4eb6 d33e db38 6a3e
00000010: 5ecd a83e b791 853e c0f9 86be 0c51 98be
00000020: d654 14bc 9b10 ed3e 2718 2ebf f4cb cc3d
00000030: 53f3 65bf 39cb 923e f77e 0a3d 9609 293d
00000040: be61 38bb ee0e d53c 6aa1 17be d48d 803c
00000050: fdff adbe 38e4 3e3e 84f0 973e 748e c8bc
00000060: cf02 843e 8bad 503d 9a74 c63d b09e 4b3e
00000070: ae3a fbbc 0c3c 86bd 21be e83b 10ba 413e
00000080: 32b0 de3e 5836 bbbb 1a38 40bc 3892 47bd
00000090: 0880 58be 6c4b 2fbe ad6d 51be 9395 bd3c
000000a0: 7d6c f73e 8a53 323d e228 9b3e 23a2 a6be
000000b0: 800a b13a 1d21 913d 33cf aabd aa04 b2bd
000000c0: 2e2f 7e3e 3599 1dbe 3a80 b93c 66c1 22bc
000000d0: bacb 383d 1ecc 3ebd 8692 c73c b9c4 193e
000000e0: 0f4f bc3c 566d 0cbe 2c56 afbe 79ae 713e
000000f0: 537a 2f3e 1406 cd3e 6415 90bd bb3e dcbe
00000100: 0654 ae3e 2054 a33b c236 e1be 49dc 24bd
00000110: 3143 c3be 98e0 94be cd1e 4ebf 9084 f63e
00000120: f493 a2be 4443 c8be 8cc5 313e 4c0b 143d
00000130: e92b b83d fc18 4e3e d1c0 f4bd 4963 30bf
00000140: 183f ba3c 44c1 893e f294 553c 6778 843e
00000150: 15c5 bfbe 5c14 b4bc 01da 2fbf 4f4e e63d
00000160: a544 2d3e 5b43 ff3c c3a9 0ebf 7279 3cbe
00000170: 968b cb3e 44a0 44bc 7bbc b43e d9f0 213e
00000180: 76c5 973e 5e6d dfbe 03d4 b93e 9200 323c
00000190: 11bd 3bbc 59b1 82bc da1e 1fbd f877 8c3e
000001a0: aa66 1abd d44e 163e 31c5 dd3e 575d e73d
000001b0: b031 b53d 17b6 1f3e 5d29 8cbe c973 0d3d
000001c0: de1b 163e 4283 1cbf 773d 1cbe bcf8 babd
000001d0: 0b67 95be 3117 8fbc 80ca aebc 51d1 94be
000001e0: 50dd d33b 83f4 433e 16f7 42bd 330a b93e
000001f0: 1f67 c2be 1226 123e d904 abbd b36a bc3e
00000200: 0f47 ad3d eaff 56bd 873f 66be c31a cfbe
00000210: f193 d83d edcf 02be 4c13 7b3e bb5d bf3e
00000220: afef 8f3e 93b0 4e3e d203 6c3e 0cd9 a2bc
00000230: 7599 cd3e 4953 23bf 7756 eabd 3518 9f3c
00000240: 84a5 ee3c 487d abbe 64ae cc3c 2b4a a9be
00000250: ebe7 c5bd 53e8 573e 8389 98be 15ff ee3e
00000260: e86b b13d fcb7 dcbe d80f 05bf 92d5 afbe
00000270: a335 aabd ea29 abbc bc0c 93bc 6cdd 3bbe
00000280: 1b83 173e ea19 1d3c b6fd 403c 02a8 97bd
00000290: c9fc 10bd 72b5 663e 189d 00bc b2e6 943e
000002a0: 1aac 843e 8628 773e e79c b9be ce1a 05be
000002b0: a073 7e3e fb4d 04bf c0ca e1b9 6d8a 58be
000002c0: 6973 943a 4d3c 09bf e74d ac3d ab5a c33e
000002d0: e047 4bbe b8b3 03bd dc69 41be 29db 19bd
000002e0: dc64 49bf c9a9 233e d81a 95bd 505c fbbe
000002f0: 10ed be3d 355e 4e3e 8b1c bc3e f0ba d2bd
00000300: 7d96 553d 3ed4 c93e 57db 713e 05d3 c53b
00000310: 543b 863e 603f 1abe 74ae 8c3e d3fb b93c
00000320: caa0 a33e 480b 8d3e fd85 963e a83d 8d3e
00000330: b938 33bf 7c5d 00bf 50b8 1d3d 467a ce3e
00000340: 32ca 803e b4b3 0d3a 02f5 203e 4e5a db3d
00000350: 6218 b53d 9120 15bf 5ca7 b33e 6dae 0d3e
00000360: a11c 5abc 9b49 643e bb4e 763d 8b31 ad3d
00000370: 3633 d9be 615f dabe 8c89 80bd 2791 1f3e
00000380: eac2 ca3e 0071 8f3e f874 94bd 7d4c 14bf
00000390: 987c 0abc 7d6e 803e b97d b1be 54dd 89bd
000003a0: 20e3 7d3c fb09 3f3e ea3a 9b3e 551a 613b
000003b0: af4f d0bc c404 773e 0146 3ebe 4e36 1a3e
000003c0: 1b94 61bf 107b f4be c7a4 0c3f 2330 45be
000003d0: 9a0c 573e cb0f cf3e 7395 56be f77b c9be
000003e0: fc3e 9e3d 2907 6b3e 8d3d a4bd e577 d9be
000003f0: b363 44bf 34ad 873e ffb8 073e b8f4 d4be

linear_two.bias f4 [3]
0.23379755 0.10414611 0.082299195
00000000: a068 6f3e 8e4a d53d 7b8c a83d
