survival/model/modeltrained.pth (torch, 17167 bytes, 4 tensors)

linear_one.weight f4 [256, 11]
0	0x3e053f23	0.13012366
1	0x3e149c25	0.1451269
2	0xbe1b21db	-0.15149634
3	0xbdbe6ace	-0.09297715
4	0x3e7eee8e	0.24895689
5	0xbe873efa	-0.26415235
6	0x3e95b35e	0.2923841
7	0x3e56fd50	0.20995069
8	0xbe7c243c	-0.24623197
9	0x3eaf87cf	0.342833
10	0xbe717307	-0.23579036
11	0x3b10f3b9	0.0022117926
12	0x3e1d4350	0.15357709
13	0x3c337182	0.010952355
14	0xbed1e2ec	-0.4099344
15	0x3e884243	0.26613054
16	0xbe8c42c9	-0.27394703
17	0xbe875a97	-0.26436302
18	0xbef5b03a	-0.47986013
19	0x3e213553	0.15742998
20	0xbef32f50	-0.47497034
21	0xbed2f64a	-0.4120353
22	0xbeac589e	-0.3366136
23	0xbde90863	-0.11378553
24	0x3d621777	0.05519816
25	0xbcabf473	-0.020990586
26	0x3e8443db	0.2583302
27	0x3e4f141a	0.20222512
28	0x3c8456dc	0.016154699
29	0xbebe3696	-0.3715102
30	0x3e444638	0.19167411
31	0x3e325b16	0.17417559
32	0x3ea6f828	0.32611203
33	0x3e6a0991	0.22855212
34	0x3e32e546	0.17470273
35	0x3e270e0f	0.16313957
36	0x3d10e02b	0.035370033
37	0xbdd7308a	-0.10507305
38	0xbe20c5f3	-0.15700512
39	0x3e10292d	0.14078207
40	0x3ca216d1	0.01978627
41	0xbe438ba4	-0.19096237
42	0xbd0f9cfe	-0.03506183
43	0x3d217617	0.03941926
44	0xbd4260d8	-0.04745564
45	0xbe8fa0e5	-0.2805244
46	0xbc2031c0	-0.009777486
47	0x3d3a30a8	0.04545656
48	0xbe098c83	-0.13432507
49	0x3d5a39c0	0.05327773
50	0x3d657f90	0.056029856
51	0xbdae1972	-0.08500947
52	0x3db4ae80	0.08822346
53	0xbe7007f4	-0.23440534
54	0xbe4208ee	-0.18948719
55	0x3e29188a	0.16513267
56	0x3d3fcfc5	0.046829004
57	0x3b3f56eb	0.0029196094
58	0x3e358613	0.17726927
59	0xbcec0677	-0.028811676
60	0xbea57120	-0.3231287
61	0x3e480cd0	0.19536138
62	0x3d64d0b9	0.055863116
63	0x3e48f4b2	0.19624594
64	0xbe9c49e3	-0.3052512
65	0x3d858a58	0.065205276
66	0xbe409543	-0.18806939
67	0xbe03fcdb	-0.12889425
68	0xbdff1c46	-0.124565646
69	0x3ea9fb08	0.33199334
70	0xbe0a56c0	-0.13509655
71	0x3dd38729	0.10328514
72	0xbe39f8ed	-0.18161364
73	0x3e940811	0.28912404
74	0xbd3b2181	-0.04568625
75	0x3ed8af6f	0.42321345
76	0xbe6f5996	-0.23374018
77	0x3c3da2c5	0.011574452
78	0x3ca7d2dd	0.02048629
79	0x3ddfa709	0.10920531
80	0xbd7ffed9	-0.0624989
81	0x3d460e55	0.04835351
82	0x3e2cc2c3	0.1687117
83	0xbbccb780	-0.006247461
84	0x3d84d93e	0.06486748
85	0x3e4f76c8	0.20260155
86	0x3de142f2	0.10999097
87	0x3ebb1079	0.36536005
88	0x3cf1cfc5	0.029518018
89	0xbe59a7ea	-0.2125546
90	0xbdcfbd17	-0.10143488
91	0xbc881e8a	-0.016616125
92	0xbe60c5e2	-0.21950486
93	0x3e54ce11	0.20781733
94	0x3d9cda82	0.076588646
95	0x3ec7d3ea	0.39028865
96	0x3f1343f8	0.5752559
97	0x3e0ee260	0.13953543
98	0x3e7c4ce8	0.24638712
99	0xbe0a6f1e	-0.1351895
100	0x3d87d716	0.06632821
101	0x3db7bf6d	0.089720584
102	0xbe542008	-0.20715344
103	0xbed8cf5f	-0.42345712
104	0x3ebfb60d	0.3744358
105	0xbdea30d1	-0.11435092
106	0x3e890e56	0.2676875
107	0x3effc67a	0.49956113
108	0xbe8f2557	-0.27958176
109	0x3e88deef	0.26732585
110	0x3e6b23af	0.22962831
111	0x3e15e2ba	0.1463727
112	0x3dc2fb71	0.09520615
113	0xbf2ad624	-0.66733
114	0x3e63ae3a	0.22234431
115	0x3e239e3c	0.1597833
116	0x3e568aed	0.20951433
117	0xbf184f75	-0.5949624
118	0xbe8a92a1	-0.27064994
119	0x3e5dad11	0.21648051
120	0xbe1da75c	-0.15395874
121	0x3ea52a4b	0.3225883
122	0xbdd61d09	-0.10454757
123	0xbe47d2f4	-0.19514066
124	0x3e4e1c70	0.20128036
125	0x3e5d97bb	0.21639912
126	0xbdd4c59d	-0.10389254
127	0xbec35b94	-0.38155806
128	0xbe6e543d	-0.23274322
129	0xbeb45e35	-0.35228124
130	0x3de30de5	0.110866345
131	0x3eb22665	0.34794918
132	0xbeaf9ead	-0.34300748
133	0x3e2e7c69	0.17039646
134	0x3de3a94c	0.11116275
135	0xbdb95979	-0.09050269
136	0x3d4c0ac8	0.04981497
137	0xbdbb9820	-0.09159875
138	0xbec89722	-0.39177805
139	0x3e1b4c55	0.15165837
140	0xbd65af2b	-0.056075256
141	0x3eccd287	0.4000437
142	0x3ec7b9a1	0.3900881
143	0x3e7536ba	0.23946658
144	0x3e4c5863	0.19955592
145	0x3e0c40bc	0.13696569
146	0xbd80c85c	-0.062882155
147	0xbdffc3f7	-0.12488549
148	0x3dfe3f91	0.12414468
149	0x3d027d5a	0.031857826
150	0xbe587b5a	-0.21140805
151	0xbe121602	-0.14266208
152	0x3dbe2eba	0.09286256
153	0xbd922f3d	-0.07137916
154	0xbd1de172	-0.03854508
155	0x3c747f5c	0.014922943
156	0xbdb240dd	-0.08703778
157	0xbe6801bc	-0.22656912
158	0x3e082782	0.13296321
159	0x3dec83d6	0.11548583
160	0x3e4a75df	0.19771527
161	0xbe3390b5	-0.1753567
162	0x3e4ec735	0.20193179
163	0xbc5ffd5c	-0.013671245
164	0x3e970e7a	0.29503232
165	0xbdb37d29	-0.08764107
166	0x3eb0434b	0.3442634
167	0x3c61e843	0.013788286
168	0x3dbee942	0.09321834
169	0xbe7ee8f9	-0.2489356
170	0x3e4fecbf	0.20305155
171	0x3e7fefae	0.24993774
172	0xbe2924ae	-0.16517898
173	0xbea95393	-0.33071575
174	0x3d2c6948	0.04209259
175	0x3b408c4a	0.0029380494
176	0xbdb8dd72	-0.09026612
177	0x3e18421a	0.14868966
178	0x3e312d16	0.17302355
179	0xbefa4bc9	-0.48885944
180	0xbe36f45e	-0.17866656
181	0x3e1ec635	0.15505297
182	0xbedcd579	-0.43131617
183	0xbddd78b2	-0.108140364
184	0xbed2ad37	-0.41147777
185	0x3e5bc085	0.21460159
186	0xbecc1443	-0.39859208
187	0xbe1b4436	-0.15162739
188	0xbd8efcd9	-0.069818206
189	0xbe561dad	-0.20909758
190	0xbe1c2a98	-0.15250623
191	0xbd0c27b6	-0.03421756
192	0x3c2b72a6	0.010464346
193	0x3bfa13a0	0.007631734
194	0xbd1481e0	-0.03625667
195	0x3e5ef721	0.2177396
196	0x3e267336	0.16254887
197	0xbe003140	-0.12518787
198	0xbe9a4f1f	-0.3013849
199	0x3e847e17	0.2587745
200	0xbe97d03f	-0.29651067
201	0xbde1872e	-0.110121116
202	0x3d630642	0.05542589
203	0x3d37f89f	0.044914838
204	0xbe8d9bc6	-0.27657908
205	0xbe303772	-0.1720865
206	0xbe535a2c	-0.20639867
207	0x3dec43a0	0.11536336
208	0x3e3d5710	0.18490243
209	0x3e544561	0.20729591
210	0xbd85d428	-0.06534606
211	0xbe08a0a4	-0.1334253
212	0x3e71e180	0.23621178
213	0x3e974fd3	0.2955309
214	0xbe4fb382	-0.2028332
215	0xbe36d2af	-0.17853807
216	0xbe841d15	-0.25803438
217	0xbe9a99e6	-0.3019554
218	0x3cda7e04	0.026671417
219	0x3e1db5ba	0.15401354
220	0xbe131a89	-0.14365591
221	0x3e7dc488	0.24782002
222	0xbe114235	-0.14185412
223	0xbe1ab861	-0.15109397
224	0xbe5a1d76	-0.21300301
225	0x3e1dc314	0.15406448
226	0xbe61e248	-0.22058976
227	0x3ed02e31	0.4066024
228	0x3e17b56a	0.14815298
229	0x3dfc77be	0.123275265
230	0xbe60f774	-0.21969396
231	0xbc12b774	-0.008954871
232	0x3d9be01c	0.07611105
233	0x3e170cf5	0.14751036
234	0xba268ef9	-0.0006353702
235	0xbe8907af	-0.26763675
236	0xbe6c1b20	-0.23057222
237	0x3d81bd7f	0.06334972
238	0xbdf4115d	-0.11917374
239	0x3ea34a64	0.31892693
240	0x3eb6b6fc	0.3568648
241	0xbd2150dd	-0.039383758
242	0x3eae66e2	0.34062868
243	0xbd32a874	-0.04361768
244	0x3e2c46ec	0.1682393
245	0xbe20642c	-0.15663213
246	0xbd96be5a	-0.073605254
247	0xbd31c544	-0.043401018
248	0x3e395bce	0.18101427
249	0x3d16cc28	0.036815792
250	0xbe02d178	-0.12775218
251	0xbceb09ef	-0.02869126
252	0xbe9c2b90	-0.30501986
253	0xbe0e22a7	-0.13880406
254	0xbe7a12e3	-0.24421267
255	0xbd681a6c	-0.056665823

linear_one.bias f4 [256]
0	0xbe8d1ad6	-0.27559537
1	0x3d1ae87f	0.03781938
2	0xbd00ce66	-0.031446837
3	0x3e460238	0.19336784
4	0xbe8f95f8	-0.28044105
5	0xbd8bf12b	-0.068331085
6	0xbe2d391f	-0.16916321
7	0xbeb9f8ff	-0.3632278
8	0xbe172863	-0.147615
9	0xbdcc86cc	-0.09986648
10	0x3e77c1bb	0.24194996
11	0xbd7d427f	-0.061830994
12	0xbc87b736	-0.016566854
13	0x3e55fef8	0.20898044
14	0x3da8dc3e	0.08245133
15	0x3ee03d44	0.43796742
16	0x3d95e943	0.07319882
17	0xbe548fc6	-0.2075797
18	0xbe4d0ca6	-0.20024356
19	0xbd3d7bf5	-0.046260793
20	0xbe0eca38	-0.13944328
21	0xbea51ccb	-0.3224853
22	0x3eca7509	0.39542416
23	0xbe2185f2	-0.15773752
24	0xbd9e2bc6	-0.07723193
25	0xbe93e1c7	-0.28883192
26	0x3dcacf3f	0.0990281
27	0x3ce72b73	0.02821896
28	0x3e031b34	0.12803346
29	0xbe67ff96	-0.22656092
30	0x3e64b45e	0.2233443
31	0x3d8bf67c	0.068341225
32	0xbebbf8fe	-0.36713403
33	0xbda53d51	-0.08068336
34	0xbb1fdf1e	-0.0024394463
35	0x3ebd8238	0.37013412
36	0xbe7846ee	-0.24245808
37	0x3e04b104	0.12958151
38	0xbe457af4	-0.19285184
39	0x3dfbf7b4	0.12303105
40	0xbd2595c9	-0.04042605
41	0xbe9436b5	-0.28947988
42	0xbe7f9caa	-0.24962106
43	0xbe2a088d	-0.16604824
44	0x3e140280	0.14454079
45	0x3e39a853	0.18130617
46	0xbb958f2c	-0.0045641866
47	0x3e33316d	0.17499323
48	0x3e1d8ced	0.1538579
49	0x3d700d9c	0.05860673
50	0xbded1fab	-0.11578306
51	0xbd883631	-0.06650961
52	0xbdcf3db1	-0.101191886
53	0xbca2e817	-0.01988606
54	0x3e71c701	0.2361107
55	0xbcb48d20	-0.02203995
56	0xbd5e434f	-0.05426341
57	0x3daf5406	0.08560948
58	0xbe2584cb	-0.16163938
59	0x3f29fea6	0.6640419
60	0x3df4b0fc	0.119478196
61	0x3e8be2a6	0.27321357
62	0xbe74de6e	-0.23912975
63	0xbd436b4a	-0.04770974
64	0xbdc7087f	-0.097184174
65	0x3ec5559f	0.38541886
66	0x3e431dd8	0.19054353
67	0x3d8e4449	0.06946618
68	0xbccc7825	-0.024959633
69	0x3e8a8ccc	0.27060544
70	0xbdfac4e0	-0.12244582
71	0xbe6cfee7	-0.23144113
72	0x3d8a671b	0.06757947
73	0x3d27c590	0.040959895
74	0xbe797c1f	-0.24363755
75	0x3db2e5da	0.08735247
76	0x3e2b9ad1	0.16758277
77	0xbd770e86	-0.060316585
78	0xba0ceada	-0.0005375572
79	0xbdd23add	-0.102651335
80	0x3e5370ef	0.2064855
81	0xbde8f015	-0.11373917
82	0x3e3b396d	0.18283625
83	0x3d332153	0.043732952
84	0x3d9e0e8e	0.0771762
85	0x3d8173fe	0.06320952
86	0xbd8f7526	-0.07004766
87	0x3df1f416	0.11814134
88	0x3c86261b	0.016375592
89	0x3e29b921	0.16574527
90	0xbebe6477	-0.37186024
91	0xbe75666b	-0.2396485
92	0x3e2af160	0.1669364
93	0xbc9a1a21	-0.018811287
94	0x3de1b873	0.11021509
95	0xbe5f9b51	-0.21836592
96	0x3dbc5ecf	0.09197771
97	0xbe67670d	-0.22597905
98	0xbdac65d6	-0.08417861
99	0xbeb88c00	-0.36044312
100	0xbe2aa2ed	-0.16663714
101	0x3e249e89	0.16076101
102	0xbdedcbf9	-0.1161117
103	0x3ed63b25	0.41842
104	0xbeae3871	-0.34027436
105	0x3e110368	0.14161456
106	0x3dfc95b4	0.12333241
107	0xbe66ab67	-0.22526322
108	0xbe4cd693	-0.20003729
109	0xbe4a66bd	-0.19765754
110	0xbd9eac03	-0.077476524
111	0x3ec55737	0.38543102
112	0xbe84e7b9	-0.2595804
113	0xbeb6df26	-0.35717124
114	0x3d768d4d	0.06019335
115	0xbdd451f1	-0.103671916
116	0x3dd3fed5	0.1035134
117	0x3e009ad9	0.1255907
118	0xbe41e555	-0.1893514
119	0x3b638441	0.003471628
120	0xbe7d7b0e	-0.24753973
121	0x3e1414e3	0.14461093
122	0xbe56614b	-0.20935552
123	0xbeba9c68	-0.36447453
124	0xbcc45645	-0.023966918
125	0xbe19dfc6	-0.15026769
126	0xbe248133	-0.1606491
127	0x3e085182	0.13312343
128	0x3e4728ae	0.19449112
129	0xbe373794	-0.17892295
130	0xbe0d2d7e	-0.13786885
131	0xbe15c3fd	-0.14625545
132	0xbdea3037	-0.114349775
133	0xbe7553af	-0.23957704
134	0xbe032fd3	-0.12811212
135	0xbec0e1f3	-0.37672386
136	0x3d3de61f	0.04636204
137	0x3f10b3d4	0.56524396
138	0x3dcdb34b	0.10043963
139	0xbdb81d75	-0.089899935
140	0xbe9a10a9	-0.30090836
141	0x3dd9f2e1	0.106420286
142	0x3ea97546	0.33097285
143	0xbe173e99	-0.14769973
144	0xbe297298	-0.1654762
145	0x3d771555	0.06032308
146	0xbe6bce09	-0.23027815
147	0xbe4e742d	-0.20161505
148	0xbeb881b1	-0.36036447
149	0xbe72bbe1	-0.23704483
150	0x3d87ed03	0.06637003
151	0xbe1ef523	-0.155232
152	0x3e6c4664	0.23073727
153	0xbd50d39b	-0.050983053
154	0x3e0e83a0	0.13917398
155	0x3e13077a	0.14358321
156	0xbcc8166f	-0.02442476
157	0x3d37eac1	0.044901613
158	0x3e9ceabc	0.30647838
159	0xbe0151ba	-0.12628832
160	0x3d636e5e	0.055525176
161	0x3e84c240	0.2592945
162	0xbdaaf3ca	-0.0834728
163	0x3ea48055	0.3212916
164	0xbcf68f5c	-0.030097656
165	0x3e5aef48	0.21380341
166	0x3efc0954	0.49225867
167	0xbb8c5edc	-0.004283769
168	0xbbd0ef7b	-0.0063762045
169	0x3da636c8	0.081159174
170	0xbca2df22	-0.019881789
171	0x3dae823a	0.085209325
172	0x3d8afc8d	0.067864515
173	0xbca5f5df	-0.020258842
174	0xbd6999ce	-0.057031445
175	0xbe17c0b1	-0.148196
176	0xbe38cdd0	-0.18047261
177	0x3e8f9558	0.28043628
178	0xbe432832	-0.19058302
179	0xbde57db6	-0.11205618
180	0x3dbcc20e	0.092167005
181	0xbe688cea	-0.22710004
182	0xbdd191f8	-0.102329195
183	0xbe94cd4b	-0.29062876
184	0x3ec8f14f	0.39246604
185	0x3e8490a7	0.2589161
186	0xbe869b8f	-0.26290557
187	0x3d0235b4	0.031789497
188	0xbe399e5e	-0.18126819
189	0x3e1649b1	0.14676549
190	0x3eaaed01	0.33383945
191	0x3dbfe382	0.093695655
192	0xbeac49f2	-0.33650166
193	0xbdcd1e9e	-0.100156054
194	0x3cd428bd	0.025898332
195	0xbddd05e9	-0.10792143
196	0xbc7c7d49	-0.01541073
197	0x3d9ed120	0.07754731
198	0xbe469fac	-0.19396847
199	0xbe1af777	-0.15133463
200	0xbe96523b	-0.29359612
201	0x3e20f6c6	0.15719137
202	0xbea7ded1	-0.32787183
203	0x3e28a185	0.16467865
204	0xbe159094	-0.14605933
205	0xbe6b31bd	-0.22968192
206	0x3e6f58c0	0.23373699
207	0xbe74309a	-0.23846665
208	0x3cfc43f1	0.030794116
209	0x3eb210bb	0.3477839
210	0xbe8ac4ba	-0.27103215
211	0x3da2a965	0.07942466
212	0x3e33ae04	0.1754685
213	0xbe07affb	-0.13250725
214	0xbd776aac	-0.060404465
215	0x3ca125a8	0.019671276
216	0xbe17f076	-0.14837822
217	0x3dfa8c80	0.122338295
218	0x3d67de1f	0.056608316
219	0x3da71e8b	0.081601225
220	0x3d57cf84	0.052688137
221	0x3cd651ed	0.026162112
222	0x3d915338	0.07095951
223	0xbea8ac8f	-0.32944152
224	0x3e03d953	0.12875871
225	0xbea60b1e	-0.32430357
226	0xbe6527b5	-0.22378428
227	0xbe03d32d	-0.12873526
228	0x3e06646c	0.13124245
229	0xbdb8e4db	-0.09028026
230	0x3dad54a6	0.08463411
231	0x3d200621	0.039068345
232	0xbd6b0441	-0.057377104
233	0x3e093275	0.13398154
234	0x3ee1c123	0.44092664
235	0xbd5188ac	-0.05115573
236	0x3f006bef	0.50164694
237	0xbc5c9d77	-0.013465277
238	0xbe4cc153	-0.19995622
239	0xbe382c83	-0.1798573
240	0x3e74bf0c	0.23901004
241	0xbccd0b43	-0.025029784
242	0x3c7bc593	0.01536693
243	0x3b1eccb3	0.0024230897
244	0x3c64a355	0.013954957
245	0x3d779108	0.060441047
246	0xbd5fe6eb	-0.05466358
247	0x3e7bdf6f	0.24596952
248	0xbe9a7815	-0.3016974
249	0x3c92b254	0.0179073
250	0xbe397ec6	-0.18114766
251	0xbe04ad0e	-0.1295664
252	0xbde08021	-0.10961939
253	0x3cfeba72	0.031094763
254	0xbe134f4d	-0.1438572
255	0xbde73d58	-0.11290997

linear_two.weight f4 [3, 256]
0	0xbe97c550	-0.29642725
1	0x3eb41fea	0.35180598
2	0xbe0a873f	-0.13528155
3	0x3db3d7b4	0.087813765
4	0x3cd1c8fc	0.025608532
5	0x3de62d70	0.11239135
6	0xbe647073	-0.22308521
7	0xbd3ee298	-0.046602815
8	0xbeb96116	-0.36206883
9	0xbea27f50	-0.31737757
10	0x3e6d03da	0.23146
11	0xbeaf3c32	-0.34225613
12	0xbe3beb4a	-0.18351474
13	0x3dae7aba	0.08519502
14	0x3ca34063	0.019928163
15	0x3e7453b8	0.23860061
16	0x3e90ce76	0.28282517
17	0x3cba0e8e	0.022712018
18	0xbc5767a8	-0.013147272
19	0xbe093dc7	-0.13402472
20	0xbe224279	-0.1584567
21	0xbdf1ca70	-0.1180619
22	0x3e1fb61f	0.15596817
23	0x3cc1c760	0.02365464
24	0xbd85f035	-0.065399565
25	0x3d9b2b1c	0.07576582
26	0x3cbd2901	0.023090841
27	0x3d10e75f	0.035376903
28	0xbe49c776	-0.19704995
29	0x3cedfd21	0.029051365
30	0x3eaf932d	0.34291974
31	0x3e435938	0.19077003
32	0xbe1db500	-0.15401077
33	0xbe7fa0ea	-0.24963728
34	0xbe84a556	-0.2590739
35	0x3e2364ee	0.1595647
36	0xbe961708	-0.29314446
37	0xbe4187f8	-0.18899524
38	0xbca1b39c	-0.019738965
39	0xbdef69d8	-0.1169011
40	0xbeee1c41	-0.4650593
41	0xbe34fff1	-0.17675759
42	0x3db9dd24	0.09075382
43	0x3c848f93	0.016181743
44	0xbe1ae313	-0.15125684
45	0x3e8a45d1	0.2700639
46	0xbf0a76b6	-0.5408739
47	0xbd4e52a5	-0.050371785
48	0xbe126b68	-0.14298785
49	0x3d249c0e	0.040187888
50	0xbe192f75	-0.1495951
51	0x3b04ab69	0.002024377
52	0xbceb727f	-0.02874112
53	0x3c387153	0.011257487
54	0x3e6dfd4c	0.23241156
55	0xbdce0a02	-0.100605026
56	0xbf1588f6	-0.5841211
57	0xbdf7691f	-0.12080597
58	0x3e538c6c	0.20659035
59	0x3e509c52	0.20372131
60	0xbc6b5688	-0.014363892
61	0x3e901661	0.28142074
62	0x3e07e4c1	0.13270856
63	0x3eb57e1a	0.3544777
64	0xbecddd7e	-0.40208048
65	0x3e0365a1	0.12831737
66	0xbe216081	-0.1575947
67	0xbf0c9b3a	-0.54924357
68	0xbc5e5aa0	-0.013571411
69	0x3dd0761c	0.101787776
70	0x3c19b3f8	0.009381287
71	0xbda27b5b	-0.079336844
72	0xbedef611	-0.4354711
73	0x3eab9bce	0.33517307
74	0x3c85d56c	0.016337119
75	0xbe52e85a	-0.20596448
76	0x3e4389ae	0.1909549
77	0xbec5d118	-0.38636088
78	0x3ea9bd6c	0.3315233
79	0xbec68047	-0.38769743
80	0x3e2bba77	0.1677035
81	0xbdd1faef	-0.1025294
82	0x3c90c095	0.017669955
83	0xbdb20cc7	-0.08693843
84	0xbdb3388f	-0.08751022
85	0xbe840035	-0.25781408
86	0x3ec4b403	0.38418588
87	0xbd8f22ec	-0.06989083
88	0x3cbce555	0.023058573
89	0x3e3f4124	0.18677193
90	0x3bcf6bee	0.006330005
91	0xbed303ef	-0.4121394
92	0xbe64c664	-0.22341305
93	0xbec9a299	-0.39381865
94	0x3e77b386	0.24189577
95	0x3ccb91d2	0.024849806
96	0x3e5aa8d0	0.2135346
97	0xbedb4431	-0.42825463
98	0xbe8589ba	-0.2608164
99	0xbd2ba8a2	-0.041908868
100	0x3d3a32ee	0.045458727
101	0x3b93ffb0	0.0045165643
102	0x3df880c4	0.12133935
103	0x3e6cd1a8	0.23126853
104	0xbdf999d3	-0.12187543
105	0x3e386613	0.18007688
106	0x3eadc91e	0.33942503
107	0x3b21c651	0.0024684856
108	0xbd918991	-0.07106317
109	0x3d62b44e	0.055347733
110	0x3ec1ebf9	0.37875345
111	0x3ec2592e	0.37958664
112	0xbc89b949	-0.016811984
113	0x3cdde6d6	0.02708761
114	0x3e28e249	0.16492571
115	0x3e63c54f	0.22243236
116	0x3d328bc2	0.043590315
117	0xbeb3048a	-0.349644
118	0xbd59a6a0	-0.05313742
119	0x3e32bd0e	0.17454931
120	0x3d13154e	0.03590899
121	0xbdc486ee	-0.09596048
122	0x3e912b51	0.2835336
123	0xbd949463	-0.07254865
124	0xbce1ed36	-0.027578931
125	0x3cfa31a0	0.030541241
126	0xbd8d06d3	-0.06886067
127	0xba28e285	-0.00064424454
128	0xbd80e0e7	-0.06292897
129	0x3d0fd61a	0.035116293
130	0xbe833019	-0.25622633
131	0xbdcd2416	-0.100166485
132	0x3c98dc4f	0.018659739
133	0x3d7b9a30	0.06142634
134	0xbd8a746e	-0.067604885
135	0xbbf1ee32	-0.0073831314
136	0xbc899136	-0.016792875
137	0x3e9bfeac	0.30467737
138	0xbe3b0ecb	-0.18267362
139	0x3cc93aae	0.024564113
140	0x3cede6e9	0.02904077
141	0x3d10eddb	0.035383087
142	0x3e9528d4	0.29132712
143	0xbc34ef7b	-0.011043425
144	0x3ce17139	0.02751981
145	0xbd87fc5d	-0.06639931
146	0xbe8ceb02	-0.27523047
147	0xbd3395cf	-0.04384404
148	0xbc09fba3	-0.008421811
149	0xbd0761bb	-0.033052187
150	0xbed78711	-0.42095235
151	0xbe593303	-0.21210866
152	0x3e031cd4	0.12803966
153	0x3e9a230d	0.30104867
154	0xbdaab65b	-0.08335563
155	0x3e7b8b36	0.24564824
156	0xbd26fa00	-0.040765762
157	0xbd613979	-0.05498645
158	0x3dc64ce5	0.09682635
159	0xbe8b68a3	-0.2722827
160	0x3e876fcd	0.26452485
161	0xbdd471c9	-0.10373265
162	0x3d501ebe	0.050810568
163	0x3ebeadc7	0.37241957
164	0xbea83a98	-0.32857203
165	0x3dc43acb	0.09581526
166	0x3e4a3645	0.19747265
167	0xbf1153a3	-0.56768245
168	0xbdf53429	-0.119728394
169	0x3e71eb02	0.23624805
170	0x3c8454b1	0.016153665
171	0xbdec7f4d	-0.11547718
172	0x3d369131	0.04457206
173	0x3e9bc3b9	0.30422762
174	0xbdcb97c1	-0.09941054
175	0x3d6a910a	0.057267226
176	0xbe2d5cc0	-0.16929913
177	0xbde2f680	-0.110821724
178	0x3d29f918	0.04149732
179	0x3ce470df	0.027885852
180	0xbd46dd00	-0.048550606
181	0xbd34f8b4	-0.044182494
182	0x3b284a80	0.002567917
183	0xbed2409d	-0.4106492
184	0x3e115377	0.14191996
185	0x3e8c8b2d	0.27449933
186	0x3c947f6a	0.018127162
187	0x3e334be2	0.17509416
188	0xbc526fa1	-0.012843997
189	0xbb4821fb	-0.0030537832
190	0x3e92ab67	0.28646395
191	0xbd43e3a3	-0.047824513
192	0x3ba732f5	0.00510251
193	0xbda14582	-0.07874586
194	0xbcbf1289	-0.023324268
195	0x3e2189c4	0.1577521
196	0xbe50db87	-0.20396243
197	0x3ddfd48e	0.109292135
198	0x3d364a40	0.044504404
199	0x3bdb6cc9	0.006696318
200	0xbdeabfe2	-0.1146238
201	0x3d971f7e	0.073790535
202	0xbe009288	-0.12555897
203	0xbd754442	-0.05987955
204	0xbcff2cc4	-0.031149276
205	0x3c969cc3	0.018385297
206	0x3ca2d47e	0.019876715
207	0xbcbae731	-0.022815319
208	0x3d8dc851	0.06922973
209	0x3e15adb3	0.14617042
210	0x3cc00aa5	0.023442576
211	0xbebb9a40	-0.3664112
212	0x3d0bec70	0.03416103
213	0x3d581a82	0.052759655
214	0xbcebfd31	-0.028807255
215	0xbd571af9	-0.052515958
216	0xbcf0f7d4	-0.029415049
217	0xbdb0f782	-0.08640958
218	0xbd854a00	-0.06508255
219	0xbed9dfa4	-0.42553437
220	0x3ee9cef9	0.4566572
221	0xbe1a116f	-0.15045713
222	0xbec88c51	-0.39169553
223	0xbce83d9b	-0.028349688
224	0x3c628bfe	0.013827322
225	0xbe8f6742	-0.28008467
226	0x3d26c918	0.04071912
227	0xbbd12fa0	-0.006383851
228	0xbe1e29ec	-0.1544568
229	0x3eab5f6c	0.3347124
230	0x3dd684ab	0.10474523
231	0xbde3adf1	-0.11117161
232	0xbdc3bfaa	-0.095580414
233	0xbe907cf9	-0.28220347
234	0x3e3eef2c	0.18645924
235	0x3d6eca00	0.05829811
236	0x3e509487	0.20369159
237	0xbd7d5cfe	-0.061856262
238	0xbc5977c0	-0.0132731795
239	0x3eb59b3a	0.3546999
240	0xbe0f3b9d	-0.13987584
241	0xbdb7012b	-0.0893577
242	0x3e8ecb6a	0.27889568
243	0x3d65ed64	0.056134596
244	0xbea451e0	-0.32093716
245	0xbee70475	-0.45120588
246	0x3e78bdbe	0.24291131
247	0x3ebeee8f	0.3729138
248	0x3ccab9a1	0.024746718
249	0xbc8c29ab	-0.017109713
250	0xbde6f281	-0.11276723
251	0xbbc4a3a7	-0.006000954
252	0x3e99d564	0.30045617
253	0x3d7fd9ab	0.062463444
254	0xbd04a9cc	-0.032388493
255	0xbd4a5822	-0.049400456

linear_two.bias f4 [3]
0	0x3daef2a7	0.08542376
1	0x3ce2806f	0.027649133
2	0xbd4bfef2	-0.04980368
