survival/model/modeltrained2.pth (torch, 17167 bytes, 4 tensors)

linear_one.weight f4 [256, 11]
000000 04 11 13 be 00 85 96 bd aa c0 89 be 98 12 76 be
       -0.1436196 -0.073495865 -0.26904804 -0.2403053
000010 e4 71 60 bd 00 af 7f bb c8 b7 71 bd d8 18 9e 3d
       -0.054796115 -0.003901422 -0.059013158 0.07719582
000020 c0 64 fa bd fd 61 8b be 60 87 2c 3d 29 69 70 bd
       -0.12226248 -0.27223197 0.04212129 -0.05869404
000030 2d 19 0a be 08 11 63 bc fc 49 72 3c 00 6c af 3a
       -0.13486166 -0.013859041 0.014788147 0.0013383627
000040 e0 28 67 3d ac a2 5b be ee 2f 23 bd 7b 3a 86 be
       0.056435466 -0.21448773 -0.03984063 -0.26216492
000050 f0 f9 ca bc b0 f3 6a 3e 57 f5 fc 3d a7 2d 80 be
       -0.024777383 0.22944522 0.12351482 -0.2503483
000060 7b 84 52 be df 02 38 3e a0 8c 64 3c 84 6d 46 3d
       -0.2055835 0.17969845 0.013949543 0.048444286
000070 64 28 12 be 56 6c 3a be 1b 83 43 be 34 62 f4 bd
       -0.1427322 -0.1820539 -0.19092982 -0.11932793
000080 0b b0 a7 be 0e e7 f1 bd 13 57 a9 3d 0f a9 58 be
       -0.32751498 -0.11811648 0.08268561 -0.2115824
000090 24 51 ca 3e 7f c8 1c be 18 bf 45 be 34 21 4a 3e
       0.3951503 -0.15310858 -0.19311178 0.19739228
0000a0 95 fa ae be 68 63 c0 3e 81 01 c8 be c9 7d 97 3d
       -0.34175554 0.3757584 -0.39063647 0.073970385
0000b0 e0 bd 50 be d0 09 3e 3c 96 3d 24 3e f9 98 0b be
       -0.20384932 0.011599019 0.16039118 -0.13632573
0000c0 b5 ef d9 3e 2d df bd be d7 1f 4b 3e 02 72 ef 3d
       0.42565694 -0.37084332 0.19836365 0.11691667
0000d0 d4 7f d9 be 85 0a b5 3e 94 e1 33 be 67 ed a6 bd
       -0.42480338 0.35359588 -0.1756652 -0.0815075
0000e0 bf e2 6c be 2e 51 11 3d c9 35 3b bd 72 ad bc bc
       -0.23133372 0.03547781 -0.04570559 -0.023031924
0000f0 93 7d 6a 3b 8b ba 13 3e 3f 64 6f bd bc 7f 10 be
       0.0035780414 0.14426629 -0.05844521 -0.14111227
000100 91 0c 1f bd 00 71 9a 3d 31 f8 46 be f9 11 8c 3d
       -0.038830344 0.07541084 -0.19430615 0.068393655
000110 26 f4 4e 3e 79 91 1a bd 3a 6e 8c be d2 fe 84 be
       0.20210323 -0.03773639 -0.27427846 -0.25975662
000120 de 11 07 be 22 3a 67 be 90 d9 88 3d 2d 1c c7 bd
       -0.1319041 -0.2258077 0.06682122 -0.09722171
000130 d7 9c 88 be fb 39 0e bc cd eb 47 be 4f 0d 0f be
       -0.2668216 -0.008680816 -0.19523545 -0.1396992
000140 ac 9c 1d 3e e3 90 be be 02 22 ad be e5 23 21 3c
       0.15391797 -0.37219915 -0.33815008 0.009835218
000150 cc 8f b1 3e 00 d9 6a 3c 60 e9 c5 3d 42 7b b9 be
       0.3468002 0.014333963 0.096636534 -0.3622685
000160 f2 77 30 3e 00 5b d2 bd 95 28 06 be dc b0 7b 3e
       0.17233256 -0.10271263 -0.13101418 0.24579185
000170 9b ed 2d 3e 29 7a c2 3d 75 ca 5b bd fa 3e ba 3e
       0.1698517 0.094959565 -0.053659875 0.36376172
000180 fc 8a 4f 3e 20 eb ca bc dc 17 a8 3e cf e8 12 3d
       0.20267862 -0.02477032 0.32830703 0.035866555
000190 44 36 29 3e b4 c6 05 be f0 6e a4 be aa 50 31 3e
       0.16524607 -0.1306408 -0.3211589 0.17315927
0001a0 ef ee 24 be 2f dc c7 3e 88 0d cf 3e ea 86 e1 bd
       -0.16106771 0.39035174 0.4044001 -0.11012061
0001b0 99 4b 70 3e d4 04 90 be 57 2b ab bc 34 07 dc bd
       0.23466338 -0.28128684 -0.02089469 -0.107435614
0001c0 94 62 8e 3e 5c 34 19 be e8 3d 32 3e 68 47 8c 3e
       0.27809584 -0.1496138 0.17406428 0.2739823
0001d0 80 4c 88 3d 52 08 cf be 7e e5 11 bd 2a fa 2e be
       0.06655216 -0.40436035 -0.03561925 -0.17087618
0001e0 7d 21 84 3d cc 14 9c bd ce 4c 75 3e 90 d4 4a be
       0.064517 -0.07621154 0.2395508 -0.19807649
0001f0 fb 8e df bd 83 59 e5 3c 5f ca 05 3e 60 7c da bd
       -0.10915943 0.027996784 0.1306548 -0.10668254
000200 11 46 c1 3e ac bf 81 3e d2 75 cf 3d 92 56 d1 3e
       0.3774877 0.25341547 0.10129894 0.4088636
000210 f4 b4 76 3d 40 b0 82 3e 30 f9 24 3e fe d7 00 be
       0.060231164 0.25525093 0.16110682 -0.12582394
000220 c8 47 3d 3e 1c c8 40 be 33 c8 12 3e 6a 6e 10 3e
       0.18484414 -0.18826336 0.14334182 0.1410462
000230 61 0e 44 3d 41 51 5a be 45 c4 5e bd 32 28 8d bd
       0.047865275 -0.21320058 -0.054386396 -0.06892432
000240 97 20 96 be 35 5a ab be af 56 43 3e 1a 19 01 3e
       -0.2932174 -0.3346726 0.19076036 0.12607232
000250 02 8c 00 be 3e 8a 1a 3e 11 f3 cb 3e 66 15 a7 3e
       -0.12553409 0.15091798 0.39833882 0.32633513
000260 ff b3 10 3f ac 3a 8b 3e e0 82 56 bd 2a 7e 8a 3d
       0.5652465 0.271932 -0.052370906 0.06762345
000270 1d 36 80 be ec 2f 87 3e 1d 78 a0 3e 30 ff 39 be
       -0.25041285 0.2640375 0.3134164 -0.18163753
000280 b3 c0 98 ba 1b c2 df 3d 44 21 13 3e e5 44 da 3e
       -0.0011654109 0.109256946 0.14368159 0.42630687
000290 02 37 8b be d0 3f d7 bd 83 8a a9 3d 76 68 dc 3d
       -0.27190405 -0.10510218 0.08278372 0.10762112
0002a0 57 68 47 bd 3f 10 dc 3d 3e 2b 66 3e c5 fe 52 be
       -0.04868349 0.10745286 0.22477433 -0.20605
0002b0 74 11 4c 3e 00 c4 a1 3e f7 06 28 3e 25 f5 b6 3e
       0.19928533 0.3159485 0.16408907 0.35733905
0002c0 65 fd 07 be 72 10 aa 3e ce d2 a6 3d cf c0 fd bd
       -0.13280256 0.33215672 0.081456766 -0.12390291
0002d0 2c f0 ad 3e e8 10 94 3e 29 60 75 bd 2a 4f 9d be
       0.339723 0.28919148 -0.05990616 -0.3072446
0002e0 8c cd ed 3d bd 22 4d 3d 74 c2 9d be fb 64 b0 3d
       0.116114706 0.050081957 -0.30812418 0.086130105
0002f0 13 ea d1 bc 75 e4 91 be e0 eb 8c 3e 29 1c ba 3e
       -0.02562431 -0.2849461 0.27523708 0.3634961
000300 29 23 79 bc a8 79 e2 bd 1b 1b 6c bc 90 d5 c0 bd
       -0.015206137 -0.1105836 -0.014410759 -0.09415734
000310 01 f3 90 3e 12 18 c4 3e 35 82 61 be 89 8c ef bd
       0.28310397 0.38299614 -0.22022326 -0.11696727
000320 b3 b9 91 bd f7 53 1d 3e 00 b1 93 bc d3 f5 42 be
       -0.071154974 0.15364061 -0.018028736 -0.19039087
000330 bb 27 8f 3e 20 40 30 bc 09 50 72 be 95 ea 5f be
       0.2796 -0.010757476 -0.23663343 -0.2186683
000340 1e 17 12 bc e6 c5 bf bd 6f 48 58 3e 91 d9 7a 3c
       -0.008916644 -0.09363918 0.21121381 0.015310661
000350 3b ce de be b3 bf e2 bd 82 be 99 be 49 cd 2b 3e
       -0.43516716 -0.1107172 -0.30028158 0.16777529
000360 54 7d 19 3d 28 b3 b2 be 3c ed 82 be 3e 9d 70 3e
       0.037473038 -0.3490231 -0.2557162 0.23497483
000370 e5 3d 03 3e aa 22 80 bd f5 3f 3a 3e 22 d6 6c 3e
       0.1281658 -0.06256612 0.1818846 0.2312856
000380 a8 1d 02 bf 7f 72 e1 3d f5 5a aa 3e 73 2e 8f be
       -0.508265 0.110081665 0.3327252 -0.27965125
000390 24 68 d8 3e 1e 2b 4b be e7 33 c3 be ff 9a 26 3e
       0.42266953 -0.19840667 -0.38125536 0.16270064
0003a0 cb 67 01 be 0d 42 05 3e 6d f8 a4 3e 50 55 38 3e
       -0.1263725 0.13013478 0.32220784 0.18001294
0003b0 ed 60 f0 be 54 70 81 be 9e 66 a4 be 9d 9b 1c be
       -0.46948949 -0.25281012 -0.3210954 -0.15293737
0003c0 88 b2 fd 3e 1e 89 90 3e b2 04 06 be d6 d6 3d be
       0.4955027 0.28229612 -0.13087729 -0.18538985
0003d0 ed 24 05 be 2c e1 6c bd fa eb f1 bd 4e ca 95 bd
       -0.13002367 -0.057831928 -0.11812587 -0.07313977
0003e0 58 8b 03 3d fc b2 b4 3d 78 85 5a bd c4 eb ac bd
       0.03211531 0.08823201 -0.053349942 -0.08443406
0003f0 90 c5 5e 3d f0 6d 04 3e 0e 70 0a be 09 a0 29 3e
       0.05438763 0.12932563 -0.13519308 0.16564955

linear_one.bias f4 [256]
000000 00 a2 41 be 16 be 93 be 77 82 e3 3c 35 99 ad 3b
       -0.18909454 -0.28855962 0.027772171 0.0052978047
000010 84 85 59 3d 14 e0 98 bd 4c b6 9a be bc e6 9b 3e
       0.053105846 -0.074646145 -0.30217206 0.30449474
000020 5c 66 b6 bd f7 fe 0a be 41 b3 b9 3d dd 5b 41 be
       -0.08906242 -0.13573824 0.09067393 -0.188827
000030 2e da e8 3d 42 24 48 3e 70 bc 7d be c9 c9 8f be
       0.113697395 0.19545081 -0.24778914 -0.28083637
000040 ea 58 20 be 62 e2 ae bd a3 e2 8d 3d 8a b5 82 ba
       -0.15658918 -0.08539273 0.06927993 -0.0009972316
000050 32 e9 5c be 19 4a 61 be a0 4d 20 be ef ac dc bc
       -0.21573332 -0.22000922 -0.15654612 -0.02693793
000060 4a 00 9a be ca 1a 26 3e 96 fc 29 bc a5 82 41 3e
       -0.30078346 0.16221157 -0.010375163 0.18897493
000070 39 48 6b 3e 57 c8 fd bd d5 71 98 be bd 3c 04 be
       0.2297677 -0.123917274 -0.29774347 -0.12913795
000080 31 f4 df bd 41 76 20 bd 50 76 84 be 9c 5a 79 be
       -0.10935248 -0.039175276 -0.25871515 -0.24350971
000090 dd fb 2a 3c e6 b8 05 be 7d 50 19 3e 33 65 b4 bd
       0.010436025 -0.13058814 0.1497211 -0.08808365
0000a0 d3 91 98 be 7d 13 93 3d 9e 75 be 3d 0e b2 c2 bd
       -0.29798755 0.071814515 0.092997774 -0.095066175
0000b0 a3 53 ba bc 67 4f 4c bc 96 8a 88 be 90 f2 9f 3d
       -0.02274496 -0.012470103 -0.26668233 0.07809937
0000c0 8a 86 c6 bd 7e 4c 61 bd 9f 66 78 be 3d 10 a6 bd
       -0.0969363 -0.05500459 -0.24257897 -0.08108566
0000d0 a1 af 31 3e 5d f8 77 3c ba 39 6e bd 85 50 6e 3e
       0.17352153 0.015134898 -0.05816052 0.23272903
0000e0 4c 37 2c 3d cc 8d c7 3d e8 b6 67 be 58 3a 86 3c
       0.042044923 0.097438425 -0.22628367 0.016385242
0000f0 34 dc cc 3d c9 58 4b 3e 29 c7 98 3e 10 55 43 be
       0.10002938 0.19858088 0.29839447 -0.19075418
000100 1b 13 61 3d 21 43 e5 3d 16 c7 92 3d d4 9d 5b be
       0.05494986 0.111944444 0.07166879 -0.21446925
000110 59 c0 9c be ac bc cd be 51 62 77 3e b6 5f 50 be
       -0.306155 -0.40183008 0.24158598 -0.20349011
000120 cc 58 f9 bd 17 d3 15 be 38 65 1a be ee 2d 1b be
       -0.1217514 -0.14631306 -0.15077674 -0.1515424
000130 e5 d5 3e be 75 89 2f bd f9 fe 8b be 2f 41 3a bd
       -0.18636282 -0.0428557 -0.27342966 -0.04547232
000140 e3 e8 aa be e2 19 1d bd 94 0d 93 3e 85 18 98 be
       -0.33380803 -0.038354762 0.28721297 -0.29706207
000150 12 69 89 be f1 0c 36 3d 59 06 1e 3f 85 f5 19 3e
       -0.26837975 0.044445936 0.61728436 0.15035065
000160 87 f2 92 be 7e 25 4d bd a1 f6 c3 3d 2e a0 70 3e
       -0.2870066 -0.050084583 0.09568525 0.23498604
000170 a2 4a 81 bd ac 3d 29 be aa cd 7a be ab a0 88 3d
       -0.06313063 -0.16527432 -0.24492517 0.0667127
000180 13 b3 bd bd cc fb c8 3a 56 c2 02 be 7c 81 9f 3d
       -0.09262671 0.001533383 -0.12769446 0.07788369
000190 a0 b6 bd bc 55 c0 89 be 26 4a 1a be 75 ed ff bd
       -0.023158371 -0.2690455 -0.15067348 -0.12496463
0001a0 a0 9e 36 bc 1b 1f 9c bd df 4f 8a be af b4 20 be
       -0.011146218 -0.076231204 -0.27014062 -0.15693925
0001b0 23 e7 65 3e f3 da fd 3e bd 16 34 3e 54 44 3f be
       0.22451453 0.49581107 0.17586799 -0.18678409
0001c0 e3 1a 92 3e 0d 00 22 3e 58 58 79 be be 5d a5 be
       0.28536138 0.15820332 -0.24350107 -0.32298082
0001d0 79 9e 53 3d 06 52 7e be 5a 10 0f 3d bf e9 e1 bd
       0.051664803 -0.24835977 0.034927703 -0.11030912
0001e0 40 fe 82 be 69 3e 89 bd 3d 49 26 3e 1a 9b af be
       -0.25584602 -0.06701357 0.16238876 -0.3429802
0001f0 45 52 7e be 46 92 d1 3d 0a b9 5f be 32 14 82 3e
       -0.24836071 0.102329776 -0.2184793 0.25406033
000200 5b 49 b6 3e e1 ff bb 3c a4 9a 20 3e b9 01 8b bd
       0.3560284 0.022949161 0.1568399 -0.06787438
000210 0e fb 0e 3d 9e 68 7d be 7a 65 0b 3f 25 10 45 3e
       0.034907393 -0.2474694 0.54451716 0.1924444
000220 e5 35 93 3e 80 1c 49 be 36 e2 90 3e 46 a6 23 3e
       0.28752056 -0.19639778 0.28297585 0.15981397
000230 6f a1 3b bd 99 7a c2 bc 87 b0 0b 3d 7f a4 20 3e
       -0.045808252 -0.0237401 0.034103896 0.1568775
000240 ea b8 01 3e b5 53 39 3d 31 b3 ae bc 84 a5 50 bc
       0.12668195 0.045245845 -0.02132568 -0.0127347745
000250 5b 67 b4 3d c7 04 88 be 6a fe fa bc 9e e9 25 be
       0.08808776 -0.26566145 -0.030638892 -0.16202399
000260 a4 76 82 3e 9e 19 6e bd 0a 03 82 be be a6 4e 3e
       0.2548114 -0.0581299 -0.25392944 0.20180795
000270 e5 d9 a7 be 9a 98 09 3e db 07 12 bd f9 89 a0 3d
       -0.32783428 0.13437119 -0.035652023 0.07838816
000280 30 08 aa 3d 6d e1 c0 bd 9a 94 20 be 5e 29 b4 bc
       0.08302343 -0.094179966 -0.15681687 -0.021992382
000290 20 50 da 3d df 71 42 bc 7c 43 d9 3e 30 cd 02 3e
       0.10659814 -0.011867969 0.424343 0.12773585
0002a0 e2 7a 95 be 99 65 8c be db 54 d4 bd d6 45 a1 3d
       -0.29195315 -0.27421263 -0.103677474 0.07874648
0002b0 b3 06 09 bd 52 24 1a 3d 31 03 ae be 20 1e c2 3d
       -0.033453654 0.037632294 -0.3398681 0.09478402
0002c0 c0 46 00 3e d4 96 0d 3e 53 b8 77 be 6a 00 3d be
       0.12526989 0.13827068 -0.24191408 -0.18457189
0002d0 1d cc 13 be 01 5a f2 3c ef 8e 94 bd 22 56 18 be
       -0.14433332 0.029583933 -0.07253825 -0.14876607
0002e0 0c c0 40 3e d2 54 f8 3d ae 72 dc 3e cb 94 3d bc
       0.1882326 0.12125553 0.43056244 -0.01157112
0002f0 f8 4e 12 3e 06 91 90 3e 46 e7 27 bc 12 84 ee 3d
       0.14287937 0.28235644 -0.010248011 0.11646284
000300 94 60 6e be fc ac 97 be 48 5d 8a be a5 eb 29 3e
       -0.23279029 -0.29624164 -0.27024293 0.16593798
000310 e4 54 3f 3e be bd 06 3e bb 74 09 3e 97 9a cb 3e
       0.18684727 0.13158318 0.13423435 0.3976638
000320 52 68 d6 3d 63 08 40 be 44 de 07 3e 68 b2 e6 3d
       0.10469116 -0.187532 0.13268381 0.11264497
000330 47 50 2d 3d 0c 74 d7 3d ea de ab 3d 08 e9 04 bd
       0.042312887 0.10520181 0.08392127 -0.0324488
000340 6c 9a 9b be 40 f7 7b 3d c7 ac 16 be 9e 34 0a be
       -0.30391252 0.061515093 -0.14714347 -0.13496634
000350 ea d2 1c 3e 22 7a 7d bd a2 7b 4b be 6a bd 90 bd
       0.15314832 -0.061884053 -0.19871381 -0.07067378
000360 61 fe f3 3e 66 eb 93 be 65 e6 14 3c 49 f3 81 be
       0.47655013 -0.28890532 0.009088133 -0.25380924
000370 c2 43 42 3e 05 b8 00 be e0 1f 79 be d7 2b 33 3e
       0.1897116 -0.12570198 -0.24328566 0.17497192
000380 a2 21 1f bc 32 92 fc bc 28 df fd 3e 90 c6 1c be
       -0.0097126085 -0.03083143 0.49584317 -0.1531012
000390 0b a7 c8 bd de 80 01 3e c7 35 a7 3e e2 aa 5e 3e
       -0.09797486 0.12646815 0.32658216 0.21744874
0003a0 2b a2 52 bd cc 0e ab bd 13 a9 9b bc 33 ea 61 be
       -0.051424187 -0.08352432 -0.01900152 -0.22061996
0003b0 fc 00 f6 3d 73 e4 c0 bd c1 f4 7a be 53 f1 c9 bd
       0.120119065 -0.09418573 -0.24507429 -0.09860482
0003c0 33 23 eb 3e 8e e2 b6 bd 2a eb 14 3e 4e c9 8f be
       0.45925292 -0.089299306 0.14542833 -0.2808327
0003d0 3d 4f 40 3e 99 c3 de 3d ec 6b 80 3d c3 cb 3f 3e
       0.18780227 0.10877151 0.062705845 0.18730073
0003e0 61 40 9e bd 99 cb 15 be bd 68 3d 3e 44 77 46 be
       -0.07727123 -0.14628448 0.18496986 -0.19381434
0003f0 aa de f3 bd 7a 87 b0 3d 31 88 8f bd 2c 6e 95 3e
       -0.11907704 0.0861959 -0.07008398 0.29185617

linear_two.weight f4 [3, 256]
000000 bc c8 aa bc 76 31 2a 3d cd d1 50 3d b7 89 0f be
       -0.02084767 0.041551076 0.05098133 -0.14017378
000010 65 22 f7 be 9f b8 e4 3c bc 70 b9 3c 78 10 03 3e
       -0.48268428 0.027920065 0.022636764 0.12799251
000020 25 ca 17 bc 25 de dd be 7b 38 03 3e 4f 0d 96 be
       -0.009264504 -0.43333545 0.12814514 -0.2930703
000030 bd fa af 3d 5a 37 3c be 5d ca 01 be 10 9a 28 bd
       0.085927464 -0.1838049 -0.12674852 -0.04116255
000040 04 eb 7a 3e 15 2f b2 be 95 e3 f8 3c ed 62 12 3e
       0.24503714 -0.34801546 0.030381957 0.1429555
000050 c1 f7 09 bf 88 81 17 bf 52 32 34 3d e4 95 fa 3d
       -0.5389367 -0.59182024 0.0439933 0.122356206
000060 6c b2 a8 3c bc 3e 7e be 68 f8 16 3e 8a d1 cc 3c
       0.02059289 -0.24828619 0.14743197 0.02500226
000070 e8 c6 1f 3e 06 0b d4 be f4 6f 8e bc cc 3b 83 3e
       0.1560322 -0.4141466 -0.017387368 0.2563156
000080 9b 4f 53 3e fe ce ae be 6b 48 6e bd cb ef a9 be
       0.20635836 -0.34142298 -0.058174532 -0.3319076
000090 56 10 be be e8 61 de be bd b0 06 be f2 43 3a bb
       -0.37121838 -0.43434072 -0.13153358 -0.0028421846
0000a0 ef 43 c8 be 4b cf 8c 3e 6f 72 5d 3c 65 d4 90 be
       -0.3911433 0.27501902 0.013516053 -0.28287044
0000b0 14 5e 89 3c 06 18 97 3d 9f 33 ad be c2 94 40 3e
       0.016768493 0.07377629 -0.33828446 0.18806747
0000c0 04 ff de bc 52 8d b4 3b 7e 5a 72 be ac fe 4d 3e
       -0.02722121 0.0055100108 -0.23667333 0.20116681
0000d0 e9 c9 48 3e a6 a0 7a be c1 78 a8 3e d9 37 70 3e
       0.19608273 -0.24475345 0.32904628 0.23458804
0000e0 06 e5 53 3e 12 44 a9 bc 2c 62 95 bc f3 5e 6e 3c
       0.20692834 -0.020662341 -0.018235289 0.014549005
0000f0 22 57 e5 3d 47 a9 83 3e 1d af b7 3e 1b c6 b6 bc
       0.1119826 0.25715086 0.35875788 -0.02231126
000100 0a 51 15 bd e4 6a 2f 3e 39 d3 2b bc 40 77 0f be
       -0.036454238 0.1713062 -0.010487371 -0.14010334
000110 34 80 58 bd 42 b9 60 bd 90 60 1b 3e 10 6b 8c bc
       -0.05285664 -0.054864176 0.15173554 -0.017140895
000120 3a f5 11 3d ef 5a 72 3e ab d0 92 3e 1c dd 16 bc
       0.035634257 0.23667501 0.28674826 -0.00920799
000130 86 96 18 3c 5a 6d 32 bd 86 4b 26 be c7 43 73 3e
       0.009313231 -0.043561317 -0.16239747 0.23756324
000140 0a 64 71 bc 8f 4a c4 bd ce ee 5f 3e c5 7d a6 be
       -0.014733324 -0.095845334 0.2186844 -0.3251783
000150 c2 a8 94 3c 75 68 16 ba 16 66 85 3e 0e 2a c4 3c
       0.018146876 -0.0005737611 0.26054448 0.023945834
000160 1e 0b 05 be 2e 6d 3f be 89 bf 88 3e 5b 11 bb 3d
       -0.12992522 -0.18693992 0.2670863 0.0913417
000170 ab ea 95 be f6 3b bc 3c 08 43 d1 3c 3f 1f 1f be
       -0.292806 0.02297781 0.025544658 -0.15539263
000180 e2 b5 e6 be 8b 73 40 be 73 9b 89 3e 3e 7a ad be
       -0.4506064 -0.18794076 0.2687641 -0.33882326
000190 20 dc 04 3d 9c 46 c8 3d b4 49 ff bd 18 99 8a bd
       0.03243649 0.09779093 -0.1246523 -0.067674816
0001a0 a3 72 79 3e fb 63 24 bd 97 42 93 bb 76 b6 9c bd
       0.24360137 -0.04013441 -0.004494022 -0.07651989
0001b0 db c0 48 3e 8e 03 27 3e e2 a6 1a bc 4c ae 63 3d
       0.19604819 0.1630995 -0.009439202 0.055586144
0001c0 e2 37 9b 3e aa 2e 88 3d 1f a1 ec bc 0a 6b 3c 3e
       0.30316073 0.066495255 -0.028885422 0.18400207
0001d0 4f 2c 46 be ce 7f 92 3d 64 85 0e ba 3c 0f 23 be
       -0.1935284 0.07153283 -0.0005436747 -0.1592378
0001e0 50 49 29 bc 83 fa fc bd 9e 2d 96 3e 0e c3 8b bd
       -0.0103324205 -0.12352469 0.29331678 -0.06824313
0001f0 b6 fc 9a bd 79 ee 02 be 62 b9 36 bd fb 85 af 3d
       -0.07567732 -0.12786283 -0.04461039 0.085704766
000200 c3 e6 4b 3e 2f 1c 08 bd 50 72 90 3d e4 9e d7 bd
       0.19912247 -0.033230003 0.070530534 -0.10528353
000210 c7 75 a7 be 20 27 50 3c 80 8b 4c 3e f8 33 fd 39
       -0.32707044 0.012704641 0.1997509 0.0004829464
000220 1a b9 95 3e 5a 1d 61 be 65 1e 1c 3e bc dd 84 bd
       0.29242784 -0.21983853 0.1524597 -0.06487605
000230 af 37 55 3e 2c c9 98 3e 8c 2a d7 bd 38 71 a2 3d
       0.20822023 0.29840982 -0.10506162 0.07931751
000240 0c dd 28 be f4 ef 46 bc e6 94 99 be e3 33 23 bc
       -0.16490573 -0.01214217 -0.29996413 -0.009961101
000250 34 62 79 3e 41 32 5d be de f2 22 bd cb ce 32 3d
       0.24353868 -0.21601202 -0.039782397 0.043654244
000260 3e 2d 33 3e 63 a1 9a bd b2 f7 87 bd af b4 47 be
       0.17497727 -0.07550313 -0.06639041 -0.19502519
000270 f8 9c 16 3c 9f 55 1d 3e f9 b4 16 3e e1 be bd bd
       0.009192698 0.15364693 0.14717473 -0.09264923
000280 70 a6 61 3e d8 bc 64 3e 1c ab ce ba 0b 37 eb 3d
       0.22036147 0.22337663 -0.0015767547 0.11485108
000290 7a 79 81 3e 24 b4 8e 3c f2 1b 33 3e 0c 10 8a 3e
       0.25287992 0.017419882 0.17491129 0.26965368
0002a0 b4 71 34 3d 34 aa c7 bc fd 75 f9 3d f0 99 b4 bd
       0.04405375 -0.024373151 0.121807076 -0.08818424
0002b0 c3 86 e5 be f5 6e 60 3c 78 24 09 3d 84 de a2 3d
       -0.44829378 0.013698329 0.033482045 0.07952598
0002c0 d8 5f 04 3e 86 1c 0a 3d 64 6e e0 be b0 a0 4b 3c
       0.12927186 0.03371861 -0.4383422 0.012428448
0002d0 14 eb f7 3c 27 80 f0 be 00 2d 04 bd 5e af 6a bb
       0.030263461 -0.46972772 -0.032269478 -0.0035810093
0002e0 d4 15 75 3d bf 8f de be 6f 50 57 3e cf 2c b3 3d
       0.05983527 -0.43469045 0.21026777 0.08748781
0002f0 d6 09 78 3e 5c d6 3d 3e 40 5e 6f 3e af 14 90 3e
       0.24222502 0.18538803 0.23375797 0.2814078
000300 2e 20 25 3d 8e 4f 1c be a5 32 ac 3c 3a 3e ed bd
       0.040313892 -0.15264723 0.021020243 -0.115841344
000310 ba 33 24 3e 85 f4 a7 bd 02 e9 f1 bd 82 d7 33 3e
       0.16035357 -0.08200935 -0.11812021 0.17562678
000320 49 aa e7 bc 9a 52 1a be 51 b8 ad bd 68 c0 24 bd
       -0.02827944 -0.15070572 -0.08482421 -0.040222555
000330 70 81 8d 3c 86 36 98 3e c1 e3 34 bc 38 0d 2c bd
       0.017273635 0.29729098 -0.011040629 -0.042004794
000340 a7 7f 56 bc 32 cd a4 3e dc e6 7b be 88 4a 77 3d
       -0.013091958 0.32187802 -0.24599785 0.060373813
000350 b6 cb d5 be fa 3c fd bc d4 44 3f 3e b1 55 ab 3d
       -0.41756982 -0.030912865 0.186786 0.08365954
000360 38 89 3e 3e ee a0 26 bd 37 c6 d4 be 20 92 c4 bd
       0.18607032 -0.04068082 -0.41557476 -0.09598184
000370 58 ea d5 3c 8a 91 80 be e0 50 f2 bc c8 48 60 3b
       0.02611272 -0.25111037 -0.02957958 0.0034223069
000380 33 ef 50 3e 97 84 89 be f0 98 3a 3e 8c 7e 44 bd
       0.20403747 -0.2685897 0.18222404 -0.047972247
000390 f4 13 c2 bd 09 34 a1 3e b1 b3 17 3e 26 bb 73 3e
       -0.09476462 0.31485012 0.1481464 0.2380186
0003a0 00 9c 7a be 2f e2 03 bf 7b 5b 71 bd 82 db 00 3d
       -0.24473572 -0.51517004 -0.058925133 0.03145934
0003b0 c7 01 1b be 79 17 91 3b 15 b8 b8 be 4b 10 2a 3e
       -0.15137397 0.004427847 -0.36077943 0.16607778
0003c0 26 45 7b 3e 2d 4f 4b 3e e7 01 3b 3e 0b 66 87 bc
       0.24538097 0.19854422 0.18262444 -0.01652815
0003d0 50 f4 d9 be 05 84 41 3d 48 98 81 3d 0b 0b 5e 3c
       -0.42569208 0.047245044 0.063278735 0.013552438
0003e0 38 e4 a2 3b 8a e3 d7 bd 23 db 9d be 3e 14 35 be
       0.0049710535 -0.105414465 -0.3083125 -0.17683503
0003f0 b4 d4 5d 3c 64 ba 5d bc ff c4 03 bf 76 c8 e1 3d
       0.013539482 -0.0135332085 -0.5147247 0.11024563

linear_two.bias f4 [3]
000000 94 48 e0 3d f3 24 f3 bc 3f 0a 43 bd
       0.10951343 -0.029680705 -0.047617193
