survival/model/model.pth (torch, 17167 bytes, 4 tensors)

linear_one.weight f4 [256, 11]
0.1959871 -0.0012974748 -0.1414442 0.15448724 -0.18247548 0.070365876 -0.41090286 0.28322583
-0.0016979573 -0.17949188 0.19964044 0.1082747 0.021116327 -0.009872624 -0.45229772 -0.42303276
-0.42870158 0.26966652 -0.28648168 -0.21226305 0.17384943 0.36858195 -0.055057626 0.2472828
-0.30443692 -0.20643462 -0.1713893 -0.18206257 0.42238703 -0.26878762 -0.2808115 0.10435802
0.27130267 0.41935992 0.07944501 0.028189253 0.32145053 0.09193273 0.32992256 0.054954085
0.01868395 0.10297032 0.25291157 -0.094741955 -0.01617256 0.17525929 0.27029103 -0.034684144
-0.048908643 0.04699781 0.18430102 0.16935624 -0.019261144 0.30833024 0.056261007 -0.3980689
0.028930346 0.06799759 -0.027609572 -0.1131809 -0.0908697 -0.20393723 0.2078174 0.24963583
0.21383156 0.20461893 0.047632605 -0.15212575 0.03841223 0.18876846 0.048658155 -0.08962691
0.21410243 -0.15219164 -0.26271752 -0.2411324 -0.16025999 -0.26865423 -0.0882347 -0.27589834
-0.105106644 0.3186838 -0.30451977 -0.03482234 -0.30418307 -0.06781267 0.57136035 0.17982651
0.2369691 0.0671092 0.12441017 -0.06341494 0.20821215 0.18891273 0.17168982 0.22445011
0.3467329 -0.15738723 0.24465263 0.0442042 0.018172225 0.17404637 0.14736643 0.11691219
-0.48996934 -0.53525054 0.20938656 0.25850382 -0.5072374 -0.39865437 -0.00065352477 0.17089793
0.063984625 0.26059398 -0.025952874 0.21649358 0.14997925 0.32336318 -0.14568792 0.30153567
-0.018778117 -0.14575416 0.08034919 -0.042695213 0.293715 0.07708059 0.022735847 -0.064318985
0.04958463 -0.03862377 0.32379997 0.028613044 -0.002593571 0.19240524 -0.14630172 0.25355837
-0.06348048 0.27554813 -0.535629 -0.36040965 -0.082355164 -0.4610841 0.32582363 -0.14675742
-0.13581364 -0.00470893 0.26510072 0.13055542 0.21650407 0.20209679 -0.1679292 -0.17159441
0.15904821 -0.35981837 0.11655396 0.077734865 -0.19830754 0.27333608 0.24639484 0.27140456
0.1596599 -0.043145016 -0.03705614 -0.03606818 0.019623999 -0.1444524 0.22672462 -0.16096905
0.20906088 0.11194692 -0.115782835 0.19619097 0.19731037 -0.18067761 0.16732952 0.2635795
-0.21892627 -0.18967763 0.19045533 -0.24614266 -0.20653977 0.15541258 0.26150396 -0.15741377
-0.24000345 0.13017052 0.11715906 0.1572124 -0.04728246 0.08475164 0.20274366 -0.0476435
0.21414343 0.19843258 -0.32284927 -0.24642298 -0.17907919 -0.12431707 0.2725695 -0.09272862
0.13848104 0.14532542 0.04505295 0.16337402 -0.1360009 0.2553105 -0.14334251 0.34640694
0.17785658 -0.0647427 0.06893834 -0.15230499 0.11201033 0.4334849 0.22776414 0.22790028
0.30982015 -0.13029964 0.32365403 0.079648584 0.1405626 -0.2990045 0.07738097 -0.2359445
0.217942 -0.29357603 0.14198348 0.0064079417 0.31759346 0.3033782 -0.12590407 -0.015518335
-0.035699155 -0.11292767 -0.243094 0.19952747 -0.3238709 0.17469665 0.15800783 0.054774802
0.009381018 0.06158152 0.3279907 0.06535289 -0.27351496 0.3351943 0.0129868835 -0.14592676
0.26627687 -0.0057615205 -0.15262672 0.09895633 0.07203163 0.33214152 -0.39792034 0.07336482
00000000: d8b0 483e 0810 aaba c0d6 10be e731 1e3e
00000010: dada 3abe fc1b 903d dc61 d2be fa02 913e
00000020: fe8d deba b8cc 37be 8b6e 4c3e 20bf dd3d
00000030: 26fc ac3c c9c0 21bc 9193 e7be c097 d8be
00000040: c67e dbbe bb11 8a3e baad 92be 7c5b 59be
00000050: 9605 323e c6b6 bc3e 1b84 61bd b437 7d3e
00000060: 28df 9bbe 9963 53be ad80 2fbe 9c6e 3abe
00000070: 1d43 d83e 889e 89be 86c6 8fbe a8b9 d53d
00000080: 2fe8 8a3e 58b6 d63e 11b4 a23d 26ed e63c
00000090: 2a95 a43e 3a47 bc3d 9ceb a83e 8917 613d
000000a0: 150f 993c 1ae2 d23d a07d 813e 1208 c2bd
000000b0: 517c 84bc 2c77 333e 9663 8a3e f610 0ebd
000000c0: 6e54 48bd c780 403d 68b9 3c3e b96b 2d3e
000000d0: 8cc9 9dbc 76dd 9d3e f171 663d b0cf cbbe
000000e0: 55ff ec3c 5242 8b3d 782d e2bc 63cb e7bd
000000f0: e519 babd ecd4 50be 16ce 543e 89a0 7f3e
00000100: a9f6 5a3e a087 513e 681a 433d dac6 1bbe
00000110: 2456 1d3d 854c 413e c64d 473d 508e b7bd
00000120: ab3d 5b3e 20d8 1bbe e982 86be 69eb 76be
00000130: 321b 24be 0c8d 89be 65b4 b4bd 8c42 8dbe
00000140: 2742 d7bd 862a a33e 04ea 9bbe dfa1 0ebd
00000150: e2bd 9bbe 5ee1 8abd ac44 123f 7124 383e
00000160: 07a8 723e 8c70 893d c2ca fe3d b1df 81bd
00000170: 9135 553e 5772 413e 75cf 2f3e 40d6 653e
00000180: fa86 b13e 1e2a 21be 3886 7a3e 770f 353d
00000190: ebdd 943c 3639 323e 3ae7 163e a96f ef3d
000001a0: 43dd fabe 2e06 09bf 6e69 563e 9d5a 843e
000001b0: 4fda 01bf 6d1c ccbe 4e51 2bba deff 2e3e
000001c0: 5f0a 833d 936c 853e 1f9b d4bc 7eb0 5d3e
000001d0: 2994 193e dc8f a53e 372f 15be e262 9a3e
000001e0: 91d4 99bc 9440 15be 1e8e a43d 2de1 2ebd
000001f0: d061 963e 6edc 9d3d 8740 ba3c acb9 83bd
00000200: 4119 4b3d f533 1ebd 1cc9 a53e e765 ea3c
00000210: e7f8 29bb e105 453e 1ed0 15be 67d2 813e
00000220: 0e02 82bd a514 8d3e fb1e 09bf 9d87 b8be
00000230: d3a9 a8bd 3713 ecbe 5bd2 a63e 9447 16be
00000240: bb12 0bbe 5e4d 9abb 48bb 873e 52b0 053e
00000250: 3eb3 5d3e 76f2 4e3e a2f5 2bbe 72b6 2fbe
00000260: 89dd 223e 1d3a b8be d8b3 ee3d 7533 9f3d
00000270: 2211 4bbe b5f2 8b3e ee4e 7c3e 8af5 8a3e
00000280: e37d 233e d4b8 30bd 2ec8 17bd 3abc 13bd
00000290: 82c2 a03c 54eb 13be 802a 683e 12d5 24be
000002a0: 0e14 563e 6d44 e53d 8d1f edbd 49e6 483e
000002b0: bb0b 4a3e 8d03 39be 6e58 2b3e e4f3 863e
000002c0: 352e 60be da3a 42be b906 433e d20c 7cbe
000002d0: 297f 53be 7a24 1f3e d9e3 853e 1331 21be
000002e0: 77c3 75be 6c4b 053e 17f1 ef3d 4afc 203e
000002f0: 41ab 41bd 4592 ad3d 099c 4f3e d525 43bd
00000300: 6a48 5b3e e931 4b3e 804c a5be 4e56 7cbe
00000310: 8960 37be f399 febd 3b8e 8b3e 81e8 bdbd
00000320: f9cd 0d3e 30d0 143e 7189 383d 854b 273e
00000330: d243 0bbe 0fb8 823e 61c8 12be 405c b13e
00000340: 0920 363e d297 84bd 8b2f 8d3d d7f5 1bbe
00000350: ac65 e53d bcf1 dd3e 013b 693e b15e 693e
00000360: bfa0 9e3e 456d 05be fbb5 a53e cc1e a33d
00000370: a4ef 0f3e 1e17 99be ea79 9e3d 6f9b 71be
00000380: 302c 5f3e 994f 96be 1e64 113e b6f9 d13b
00000390: 9c9b a23e 6354 9b3e ffec 00be 9d40 7ebc
000003a0: 4739 12bd 9f46 e7bd a2ed 78be ee50 4c3e
000003b0: 68d2 a5be aee3 323e cecc 213e 8b5b 603d
000003c0: d7b2 193c e73c 7c3d 66ee a73e bcd7 853d
000003d0: 270a 8cbe 969e ab3e f0c6 543c d36d 15be
000003e0: 7155 883e 23cb bcbb 2e4a 1cbe 9ea9 ca3d
000003f0: 5285 933d 740e aa3e 37bc cbbe 4b40 963d

linear_one.bias f4 [256]
-0.02814041 -0.086117305 -0.009572219 0.30267403 0.5636475 0.16743802 0.43696162 0.21688178
0.38624698 0.033297885 0.5280325 0.45552173 0.14993572 0.40394494 0.047570523 0.35958397
0.34272444 0.295668 0.057194043 0.41804376 0.17321219 -0.23356414 0.34121826 0.01912654
0.6024211 0.13860078 0.7695864 0.2447101 -0.123952046 -0.044836268 -0.2860092 0.19924206
-0.2083528 0.0839097 0.39825463 0.35870022 0.9027613 -0.09104803 0.30034015 0.004326877
-0.21458206 0.33039057 0.029684154 -0.12917374 0.06562 0.23468876 0.3811575 -0.041564867
-0.026031958 0.14071815 0.3804175 0.10974981 0.48587632 -0.113100454 -0.19358389 0.21870618
0.29099295 0.1653087 -0.080090396 -0.107650846 0.48339283 0.43608505 -0.31379366 0.16194353
-0.021070827 0.19148467 0.05215398 0.04441823 -0.16229358 0.56875354 -0.1876401 0.026449049
0.38364896 -0.09555234 -0.14739315 0.18309166 0.19212544 0.30072394 0.012623786 -0.13700476
0.23507431 -0.26627263 -0.23029646 0.3609919 -0.32653856 0.3840842 -0.08426577 -0.0966592
0.40326434 0.5079464 -0.1696255 0.22319946 -0.28265882 -0.24702497 -0.06109198 -0.2597348
0.2939963 0.37724742 0.47432426 -0.22304775 0.0990033 0.24052104 -0.18512392 -0.28917512
0.2698221 0.07263704 0.25558114 -0.24047457 0.3622921 -0.22598794 -0.29205108 -0.16881125
0.8232444 0.026220467 -0.2031263 -0.24852546 -0.16199209 0.50717795 0.052671004 0.21966405
0.36565775 0.140227 0.6602306 -0.04273721 0.25443363 0.45130908 -0.10688643 0.39691728
-0.10686579 -0.06687754 -0.14588599 0.22336742 0.24365716 -0.21540508 0.21183853 0.79708076
0.2563055 0.79889303 0.18457478 0.6966365 0.2844436 -0.066927254 0.17655495 -0.12266972
0.30861974 0.17911278 -0.23589918 0.507737 0.48181108 -0.21381646 0.21309775 0.05405312
-0.17358635 0.13990602 0.5101638 -0.17931177 -0.28985792 0.60043967 0.22792539 -0.32871303
-0.06998976 -0.25192365 0.0891964 -0.109855175 0.44485328 0.01262571 -0.14737247 -0.051350012
0.55607074 -0.13929467 0.3060436 0.008319843 -0.23118234 0.04378401 -0.047432475 -0.12214145
0.4476779 -0.24577999 0.34985855 0.3251081 0.20844936 0.17941743 -0.20270476 -0.02245071
0.3693444 0.6173246 0.4243196 0.0382371 0.21045151 0.07787513 0.28327167 0.03552859
0.07091269 -0.14808406 0.8696094 -0.2966292 0.23788533 0.120399006 0.48657954 -0.13476112
0.024062008 -0.07846366 -0.14532918 0.3329312 0.13305214 0.05734051 0.07150796 0.06882919
-0.33088893 0.099636205 0.1116935 -0.23371378 -0.074806236 -0.15428433 -0.007919549 0.07494535
0.49032584 0.12723923 0.63146085 -0.068257 0.37922403 0.108652756 -0.08860604 -0.23218536
0.048503034 -0.28056455 0.08442456 -0.19444956 0.06595339 -0.037324086 0.52834445 0.034288265
0.12140828 -0.22608294 0.09065881 -0.3051549 0.08263556 0.47554475 -0.2955016 0.49176282
0.10605858 0.026544578 0.50467724 0.28178254 0.005396846 -0.03939253 0.25201645 0.22750807
0.0849437 0.40021285 0.00884207 0.834311 0.49327502 0.1063569 -0.20625986 0.021961221
00000000: b886 e6bc 455e b0bd ccd4 1cbc 17f8 9a3e
00000010: 344b 103f df74 2b3e 6fb9 df3e 4216 5e3e
00000020: 2ac2 c53e 5d63 083d 232d 073f 253a e93e
00000030: c088 193e dfd1 ce3e 4fd9 423d 641b b83e
00000040: 9479 af3e cc61 973e 4d44 6a3d d509 d63e
00000050: 895e 313e 702b 6fbe 29b4 ae3e 43af 9c3c
00000060: 4538 1a3f 5ded 0d3e 9d03 453f 4995 7a3e
00000070: 92da fdbd 3ca6 37bd cc6f 92be 1c06 4c3e
00000080: 705a 55be d9d8 ab3d 08e8 cb3e 8ea7 b73e
00000090: 5d1b 673f 6477 babd 2fc6 993e 7ac8 8d3b
000000a0: 66bb 5bbe f428 a93e 2f2c f33c 1f46 04be
000000b0: c763 863d 4052 703e 1327 c33e ec3f 2abd
000000c0: f940 d5bc 6b18 103e 15c6 c23e 82c4 e03d
000000d0: c8c4 f83e 36a1 e7bd db3a 46be 83f4 5f3e
000000e0: 07fd 943e af46 293e 6f06 a4bd 0c78 dcbd
000000f0: 447f f73e 8a46 df3e 90a9 a0be 86d4 253e
00000100: ba9c acbc 8f14 443e 699f 553d e4ef 353d
00000110: 4a30 26be d599 113f ba24 40be adab d83c
00000120: a36d c43e f2b0 c3bd 3bee 16be 617c 3b3e
00000130: 88bc 443e 7df8 993e ffd3 4e3c fa4a 0cbe
00000140: 52b7 703e e354 88be d6d2 6bbe eed3 b83e
00000150: 1030 a7be afa6 c43e 8893 acbd 42f5 c5bd
00000160: aa78 ce3e c608 023f 4fb2 2dbe 668e 643e
00000170: a8b8 90be 1df4 7cbe 963b 7abd f6fb 84be
00000180: af86 963e 9326 c13e a1da f23e a166 64be
00000190: 3ec2 ca3d 264b 763e 2091 3dbe c30e 94be
000001a0: 1f26 8a3e bac2 943d 88db 823e f73e 76be
000001b0: 5a7e b93e 6269 67be b887 95be dbdc 2cbe
000001c0: 25c0 523f 4ecc d63c 5700 50be 757d 7ebe
000001d0: 41e1 25be 6ad6 013f 8dbd 573d 9def 603e
000001e0: 7e37 bb3e ab97 0f3e df04 293f 360d 2fbd
000001f0: 2045 823e fc11 e73e 46e7 dabd be38 cb3e
00000200: 74dc dabd 17f7 88bd 2363 15be 6eba 643e
00000210: 4381 793e 2693 5cbe 33ec 583e 7c0d 4c3f
00000220: 793a 833e 4184 4c3f 2c01 3d3e c556 323f
00000230: 97a2 913e 2811 89bd d2ca 343e 433a fbbd
00000240: 6803 9e3e 5769 373e 8e8f 71be 0dfb 013f
00000250: f1af f63e b4f2 5abe 4c36 5a3e ce66 5d3d
00000260: 9fc0 31be 8643 0f3e 189a 023f 819d 37be
00000270: 4268 94be 6ab6 193f 4665 693e 134d a8be
00000280: cb56 8fbd 23fc 80be 9aac b63d c0fb e0bd
00000290: cfc3 e33e 11dc 4e3c cfe8 16be 6454 52bd
000002a0: a75a 0e3f 43a3 0ebe bfb1 9c3e f34f 083c
000002b0: 10bb 6cbe dd56 333d 8e48 42bd 4c25 fabd
000002c0: 0a36 e53e c0ad 7bbe a920 b33e 9274 a63e
000002d0: c073 553e 34b9 373e d691 4fbe 8dea b7bc
000002e0: b61a bd3e fc08 1e3f 6b40 d93e 819e 1c3d
000002f0: 9a80 573e ff7c 9f3d fc08 913e 6d86 113d
00000300: ac3a 913d 59a3 17be b99e 5e3f c8df 97be
00000310: 3698 733e c193 f63d f420 f93e d2fe 09be
00000320: b01d c53c 8eb1 a0bd 2cd1 14be f575 aa3e
00000330: d23e 083e e2dd 6a3d c472 923d 52f6 8c3d
00000340: 466a a9be 110e cc3d 90bf e43d aa52 6fbe
00000350: 0334 99bd b6fc 1dbe ffc0 01bc f37c 993d
00000360: fd0b fb3e 004b 023e 6ba7 213f 53ca 8bbd
00000370: a729 c23e 5685 de3d 1577 b5bd 00c2 6dbe
00000380: 1eab 463d 28a6 8fbe c9e6 ac3d c91d 47be
00000390: 9212 873d 24e1 18bd 9541 073f da71 0c3d
000003a0: e8a4 f83d 4982 67be 54ab b93d 433d 9cbe
000003b0: d53c a93d 9a7a f33e fc4b 97be 56c8 fb3e
000003c0: 3e35 d93d 0474 d93c 8732 013f cd45 903e
000003d0: 07d8 b03b 105a 21bd 4d08 813e e0f7 683e
000003e0: f6f6 ad3d b3e8 cc3e 54de 103c 6895 553f
000003f0: 8b8e fc3e a5d1 d93d c935 53be 05e8 b33c

linear_two.weight f4 [3, 256]
-0.0691445 0.30385515 0.23341647 -0.15135713 -0.13179342 -0.08272865 -0.19566539 -0.4768628
-0.07909492 0.37357333 -0.07111388 -0.14328791 -0.44652998 -0.121964574 -0.07109386 -0.0781082
0.09277293 -0.03092117 -0.08771242 -0.13807036 -0.10409203 -0.02530287 -0.13998348 -0.034901384
-0.1596079 -0.5736876 -0.14900522 -0.66004074 -0.034211643 -0.5078903 -0.00096414983 0.47592643
0.3892948 0.31047186 -0.073478505 -0.091004245 -0.14951156 0.33556238 0.55221695 0.40308025
0.049798444 -0.07912193 -0.5361168 -0.7984615 0.5609286 -0.07944499 0.071541734 -0.41290376
-0.05939706 -0.1350267 -0.10359564 -0.07359345 -0.08545241 -0.42556158 0.27358836 -0.3914024
-0.17234635 -0.067771606 -0.31735548 -0.44999757 -0.10520088 -0.12657192 -0.0313499 -0.108484924
-0.057426758 -0.47795177 -0.0803564 -1.0314322 -0.036007375 -0.09270028 0.46946588 -0.027315509
-0.059461348 0.029525222 -0.34812713 -0.07183763 -0.32857212 -0.111315735 -0.14351171 -0.29543
-0.101167016 -0.05002366 0.53119296 -0.033050466 0.012737223 -0.0796727 -0.76703525 -0.048921324
-0.115940265 -0.13044654 -0.13461052 -0.03929914 0.000875423 -0.7366575 -0.09849746 0.2666568
-0.060499154 -0.09017501 -0.11504093 0.02626017 -0.067705214 -0.045733683 0.030966418 -0.008894615
-0.1598938 -0.4399229 -0.46947658 -0.020719972 -0.14213362 -0.0558244 -0.028603569 -0.43383697
-0.13238344 0.20600386 0.0063945325 0.30397895 0.16359715 -0.11810709 -0.37223285 -0.14662562
-0.12202191 -0.07344767 -0.11938997 -0.2894805 -0.06171933 -0.10640061 0.00066940486 -0.22667488
-0.51869494 -0.22238788 -0.3729042 -0.44650164 -0.13228947 -0.18434529 0.10445489 -0.13414754
-0.36090317 -0.13455452 0.10104528 -0.1294932 -0.10537589 -0.024128437 -0.0918695 -0.21738832
-0.09927235 0.42213687 -0.33770818 -0.081280276 -0.120844856 -0.31858605 -0.03264639 -0.06185815
-0.14969376 -0.17343491 -0.15492725 0.115346566 -0.02714967 -0.1377438 -0.37411222 -0.028205676
-0.31644928 -0.28259352 -0.36844942 -0.16280471 -0.12516116 -0.18069267 0.040004373 0.1394165
-0.11063107 -0.0023854026 -0.07680822 -0.141783 0.49875617 -0.30375728 -0.025287537 -0.008125539
-0.08102442 -0.028405784 -0.07555793 0.09868113 -0.06385373 -0.068324916 -0.3596204 0.22336642
-0.11009176 -0.12421923 -0.19123287 -0.12999955 -0.058857255 -0.043017596 -0.07839098 0.087691486
-0.057594985 0.08879415 -0.16339266 0.029407209 -0.109176785 -0.12978277 -0.078093536 -0.0104178265
0.033436835 -0.42108506 0.24158998 -0.5179589 -0.065591216 -0.2542702 -0.3703368 -0.30211434
0.16882461 -0.043152712 -0.103821985 -0.025887378 -0.43780196 -0.18537281 -0.5779363 -0.7679149
-0.0984697 -0.2079762 -0.08667025 -0.014972165 -0.085217506 -0.12733702 -0.16256192 -0.043337084
-0.091540724 -0.8587641 -0.09892613 -0.051405184 -0.82741725 -0.47197577 -0.106526755 -0.059057187
0.3499039 -0.026737452 0.30413902 0.02703217 -0.045604594 -0.1115411 -0.018660791 -0.102024905
-0.009689368 -0.6943675 -0.09977455 -0.04193878 -0.22752608 -0.06189288 -0.09461272 0.116807416
-0.07156719 -0.11260873 0.25159582 -0.17184585 -0.12457053 -0.554483 0.01234626 -0.561668
00000000: a29b 8dbd e792 9b3e ba04 6f3e 5dfd 1abe
00000010: dbf4 06be a36d a9bd 825c 48be 5c27 f4be
00000020: 84fc a1bd 0145 bf3e 27a4 91bd 11ba 12be
00000030: 949f e4be 90c8 f9bd a899 91bd 31f7 9fbd
00000040: bcff bd3d 654e fdbc 92a2 b3bd 5162 0dbe
00000050: 342e d5bd f747 cfbc d457 0fbe c1f4 0ebd
00000060: 4170 23be 31dd 12bf d394 18be 6ef8 28bf
00000070: 8221 0cbd 1905 02bf 00bf 7cba a1ac f33e
00000080: a651 c73e 2bf6 9e3e e67b 96bd 6f60 babd
00000090: 8f19 19be d5ce ab3e 175e 0d3f 8960 ce3e
000000a0: 74f9 4b3d ae0a a2bd f33e 09bf f967 4cbf
000000b0: 0499 0f3f 0eb4 a2bd 7984 923d 1f68 d3be
000000c0: 554a 73bd 7044 0abe f329 d4bd 2ab8 96bd
000000d0: ac01 afbd 35e3 d9be c613 8c3e e565 c8be
000000e0: 907b 30be d7cb 8abd 6b7c a2be 1566 e6be
000000f0: 8f73 d7bd 129c 01be c168 00bd 582d debd
00000100: 5238 6bbd 18b6 f4be e591 a4bd f805 84bf
00000110: 787c 13bd a5d9 bdbd d55d f03e c6c4 dfbc
00000120: be8d 73bd e1de f13c b83d b2be 9b1f 93bd
00000130: 9b3a a8be 81f9 e3bd bcf4 12be 9a42 97be
00000140: a730 cfbd 9ce5 4cbd 43fc 073f ed5f 07bd
00000150: c9af 503c 712b a3bd 6c5c 44bf ba61 48bd
00000160: 1772 edbd c793 05be 57d7 09be 23f8 20bd
00000170: a57c 653a 9695 3cbf 09b9 c9bd 3d87 883e
00000180: f6cd 77bd adad b8bd 949a ebbd 911f d73c
00000190: 08a9 8abd 3e53 3bbd 49ad fd3c b8ba 11bc
000001a0: 33bb 23be 933d e1be 3c5f f0be eebc a9bc
000001b0: 7a8b 11be 20a8 64bd 0852 eabc e11f debe
000001c0: 868f 07be adf2 523e 3a89 d13b 21a3 9b3e
000001d0: 0386 273e 21e2 f1bd 4e95 bebe 0725 16be
000001e0: a0e6 f9bd bb6b 96bd bb82 f4bd ca36 94be
000001f0: 68cd 7cbd 90e8 d9bd 007b 2f3a 761d 68be
00000200: 31c9 04bf a6b9 63be 4ded bebe dd9b e4be
00000210: e476 07be 03c5 3cbe 72ec d53d f95d 09be
00000220: 4dc8 b8be a9c8 09be d4f0 ce3d de99 04be
00000230: 51cf d7bd 00a9 c5bc 1426 bcbd 0b9b 5ebe
00000240: 4d4f cbbd 5322 d83e 16e8 acbe 4676 a6bd
00000250: 827d f7bd b61d a3be 39b8 05bd f95e 7dbd
00000260: 5249 19be ec98 31be 40a5 1ebe d23a ec3d
00000270: fc68 debc b60c 0dbe a38b bfbe 970f e7bc
00000280: a405 a2be 19b0 90be 67a5 bcbe 47b6 26be
00000290: 3f2a 00be 8007 39be a0db 233d 33c3 0e3e
000002a0: 8b92 e2bd 6a54 1cbb a14d 9dbd 902f 11be
000002b0: f85c ff3e 1386 9bbe cf27 cfbc fb20 05bc
000002c0: 22f0 a5bd 3fb3 e8bc 1ebe 9abd 5519 ca3d
000002d0: bfc5 82bd efed 8bbd 2a20 b8be 2bba 643e
000002e0: ca77 e1bd a766 febd 8dd2 43be 9a1e 05be
000002f0: 4e14 71bd 3833 30bd 738b a0bd 9897 b33d
00000300: b8e8 6bbd b5d9 b53d 6850 27be 63e7 f03c
00000310: 1498 dfbd c6e5 04be 81ef 9fbd 88af 2abc
00000320: 10f5 083d 7698 d7be 5d63 773e f498 04bf
00000330: b054 86bd b42f 82be c99c bdbe bbae 9abe
00000340: 5ce0 2c3e e6c0 30bd 9fa0 d4bd c411 d4bc
00000350: 9427 e0be 5fd2 3dbe a2f3 13bf 1296 44bf
00000360: 7baa c9bd b7f7 54be 2c80 b1bd d04d 75bc
00000370: 8486 aebd a364 02be a276 26be 3a82 31bd
00000380: b479 bbbd f7d7 5bbf c899 cabd 3e8e 52bd
00000390: 9ed1 53bf cfa6 f1be b32a dabd f3e5 71bd
000003a0: 9b26 b33e 8008 dbbc 1cb8 9b3e 9272 dd3c
000003b0: e2cb 3abd a96f e4bd 84de 98bc 6ff2 d0bd
000003c0: 28c0 1ebc 12c2 31bf 9956 ccbd 00c8 2bbd
000003d0: 99fc 68be 6383 7dbd 50c4 c1bd ba38 ef3d
000003e0: d291 92bd 689f e6bd 2bd1 803e 5cf8 2fbe
000003f0: d61e ffbd 99f2 0dbf f847 4a3c 79c9 0fbf

linear_two.bias f4 [3]
-0.11929546 -0.18678883 -0.14604309
00000000: 2e51 f4bd 9245 3fbe 528c 15be
