survival/model/new_model120games.pth (torch, 17167 bytes, 4 tensors)

linear_one.weight f4 [256, 11]
0.124927 0.10946163 -0.07899336 -0.020096947 -0.39242595 0.10421819 0.13336445 0.08935288
0.40580866 -0.43555352 -0.41285327 8.627777e-05 -0.029161086 -0.010907283 -0.18885429 0.029079733
0.4589465 -0.17682396 0.4787845 0.29839304 -0.14360437 0.46324122 -0.31401125 -0.036354315
-0.26764745 -0.024200201 -0.115086034 -0.115578 0.107267894 -0.26261896 0.0127877565 -0.0034304592
-0.14346024 0.12680812 -0.18786328 -0.341647 0.010983034 -0.32312334 0.29318437 -0.31357014
-0.33427238 0.2507217 0.42621076 0.07515913 0.11692954 -0.24661854 -0.31868517 -0.14571422
-0.23367311 0.51669663 0.12302223 0.33964112 0.5490706 -0.3470958 0.10909521 0.006399244
-0.2895382 0.07722527 -0.29947686 -0.17642282 -0.27850267 -0.2171148 -0.14755243 0.059901416
-0.26118344 -0.034702092 0.11610932 -0.23373446 -0.009848144 -0.18299212 -0.29599756 0.28016716
-0.15638763 -0.35328287 0.05012223 -0.3512294 -0.15735003 -0.30076155 -0.15344885 -0.14174381
-0.17860797 -0.15183379 0.20173484 -0.21767592 -0.22747594 -0.0044538975 0.06700215 0.27991605
-0.089417875 -0.3309435 0.19921295 -0.11668275 0.33246356 -0.024749877 0.5162683 -0.04368499
-0.0527907 -0.078623876 0.11042914 -0.3410461 0.22811592 0.20050122 0.05340856 -0.3073872
-0.02075535 -0.11499469 0.19356705 0.09969549 0.23534113 -0.17792635 -0.1995703 0.09338997
-0.26979503 -0.11117437 -0.21782058 0.39986092 -0.18876147 0.2745767 0.4115505 -0.18032297
0.3718284 -0.16994302 -0.068992086 -0.11522505 0.21301652 -0.3414766 -0.2812869 -0.024934482
-0.2726599 0.19962946 0.300279 0.0626069 0.27733856 0.2903046 0.42678997 0.24549103
0.16852665 0.18715687 0.034486163 0.07539695 0.098659255 0.23324388 -0.011270209 -0.09231778
-0.19073927 0.0061573097 0.1508622 -0.033790227 0.04738359 -0.23739517 0.8292203 -0.38272116
-0.6567345 -0.6751024 -0.012805457 0.036729366 -0.082291946 -0.040272314 -0.48573554 0.022945521
0.19316494 0.24848346 0.5466672 0.070300646 -0.2817836 0.40436956 0.07992247 0.19517948
-0.11536947 0.13095272 0.11346502 0.12659702 0.1529173 0.6152137 0.35751963 0.17070208
-0.49413165 -0.09502981 -0.14181006 0.33622384 0.2647083 -0.26301214 0.34115127 0.11599266
0.13763992 0.15463632 0.025593556 0.1735103 -0.24065523 -0.001991691 -0.08660097 0.15761596
-0.11572352 0.16247557 -0.15571791 0.6784357 -0.46583843 0.37507844 -0.14370659 -0.2965978
-0.30197057 -0.18648377 -0.21473628 -0.24780524 -0.041574016 0.09792239 -0.15580074 0.17961055
-0.013304114 0.25274658 0.00831008 -0.17583519 0.2505545 -0.18342574 0.120064475 -0.16763264
0.53008974 -0.35242167 0.34236726 -0.4314594 -0.062913135 0.017325453 0.21369848 -0.10654729
-0.017002663 0.014065124 -0.017309237 -0.12980273 0.018644225 -0.054068558 -0.08213755 0.06701236
0.053536605 0.21142556 -0.36112046 0.33952066 -0.30951414 0.2958039 -0.18819018 0.54104745
-0.5944374 0.21842976 -0.16405746 -0.047058735 -0.10911347 0.09728187 -0.11706425 0.10929596
-0.22489126 0.17125016 -0.24111287 0.140667 0.14210394 0.62183034 0.43316495 0.70151275
00000000: bad9 ff3d 6b2d e03d 45c7 a1bd 5aa2 a4bc
00000010: 0eec c8be 5970 d53d b190 083e a5fe b63d
00000020: 27c6 cf3e df00 dfbe 8161 d3be 06f0 b438
00000030: 3be3 eebc 76b4 32bc 0563 41be 9f38 ee3c
00000040: 09fb ea3e 5711 35be 3e23 f53e f9c6 983e
00000050: 060d 13be f42d ed3e 15c6 a0be 43e8 14bd
00000060: 1609 89be 803f c6bc 3ab2 ebbd 29b4 ecbd
00000070: 45af db3d fe75 86be bd83 513c 8ed1 60bb
00000080: 3ee7 12be fdd9 013e 3b5f 40be 5bec aebe
00000090: 2ff2 333c 6c70 a5be 431c 963e 448c a0be
000000a0: c025 abbe 985e 803e 4c38 da3e 08ed 993d
000000b0: c178 ef3d 9289 7cbe b42a a3be 1c36 15be
000000c0: 0148 6fbe 3b46 043f 14f3 fb3d 71e5 ad3e
000000d0: e48f 0c3f 8ab6 b1be 4f6d df3d c0b0 d13b
000000e0: 5a3e 94be 4828 9e3d 0855 99be 2fa8 34be
000000f0: e797 8ebe 5853 5ebe fc17 17be 305b 753d
00000100: d6b9 85be c823 0ebd b9ca ed3d 1658 6fbe
00000110: 1c5a 21bc 4962 3bbe fe8c 97be 1272 8f3e
00000120: 1424 20be 7ee1 b4be f84c 4d3d 57d4 b3be
00000130: 5e20 21be 6bfd 99be b221 1dbe 4a25 11be
00000140: 02e5 36be 517a 1bbe 9493 4e3e 70e6 5ebe
00000150: 74ef 68be 00f2 91bb 6c38 893d 2851 8f3e
00000160: b820 b7bd 6d71 a9be 7bfe 4b3e 5ef7 eebd
00000170: aa38 aa3e 41c0 cabc 292a 043f 08ef 32bd
00000180: 103b 58bd 8e05 a1bd ac28 e23d 989d aebe
00000190: 3897 693e 3150 4d3e efc2 5a3d db61 9dbe
000001a0: 2007 aabc 5682 ebbd 7136 463e 262d cc3d
000001b0: 44fd 703e 5332 36be 285c 4cbe 3e43 bf3d
000001c0: 9322 8abe 63af e3bd 5c0c 5fbe 92ba cc3e
000001d0: b04a 41be 5195 8c3e bfb6 d23e 96a6 38be
000001e0: 4b60 be3e 8b05 2ebe b94b 8dbd 1cfb ebbd
000001f0: 0121 5a3e 05d6 aebe d604 90be 6643 ccbc
00000200: 149a 8bbe aa6b 4c3e 2bbe 993e 0c38 803d
00000210: 52ff 8d3e cea2 943e 3784 da3e 0062 7b3e
00000220: 4092 2c3e 0da6 3f3e 5d41 0d3d b769 9a3d
00000230: dd0d ca3d 7cd7 6e3e afa6 38bc 1b11 bdbd
00000240: 2851 43be 42c3 c93b 9f7b 1a3e 9f67 0abd
00000250: 4c15 423d b817 73be c847 543f 07f4 c3be
00000260: c11f 28bf 83d3 2cbf fbcd 51bc 8871 163d
00000270: ae88 a8bd 95f4 24bd 54b2 f8be 3ff8 bb3c
00000280: 08cd 453e 7372 7e3e 62f2 0b3f c9f9 8f3d
00000290: f145 90be 8709 cf3e 64ae a33d 21dd 473e
000002a0: d446 ecbd 7818 063e 5960 e83d a6a2 013e
000002b0: 5a96 1c3e a57e 1d3f d00c b73e 87cc 2e3e
000002c0: d3fe fcbe fd9e c2bd a836 11be 8825 ac3e
000002d0: d987 873e 87a9 86be 61ab ae3e 8f8d ed3d
000002e0: 7bf1 0c3e fc58 1e3e 94a9 d13c afac 313e
000002f0: 536e 76be 0887 02bb d95b b1bd 1466 213e
00000300: 7400 edbd ff5f 263e 8474 1fbe f6ad 2d3f
00000310: 6082 eebe 480a c03e d227 13be abdb 97be
00000320: e39b 9abe 9af5 3ebe d4e3 5bbe a8c0 7dbe
00000330: 8449 2abd 898b c83d 3b8a 1fbe d4eb 373e
00000340: 80f9 59bc 0068 813e 0027 083c 240e 34be
00000350: ae48 803e f5d3 3bbe 5de4 f53d e4a7 2bbe
00000360: f6b3 073f 9d70 b4be c34a af3e 3fe8 dcbe
00000370: 9ad8 80bd 1cee 8d3c c6d3 5a3e 7735 dabd
00000380: 2b49 8bbc 6871 663c 1acc 8dbc 02eb 04be
00000390: c6bb 983c fe76 5dbd bb37 a8bd c73d 893d
000003a0: 3349 5b3d f17f 583e c8e4 b8be a7d5 ad3e
000003b0: a378 9ebe 9c73 973e edb4 40be 1682 0a3f
000003c0: 0d2d 18bf 0dac 5f3e aefe 27be a9c0 40bd
000003d0: e276 dfbd b83b c73d 62bf efbd 8fd6 df3d
000003e0: e549 66be 345c 2f3e 4be6 76be 030b 103e
000003f0: b283 113e 4630 1f3f ccc7 dd3e 5796 333f

linear_one.bias f4 [256]
-0.32953066 -0.3067334 0.21934813 0.25131184 0.11217581 -0.29696488 -0.05694654 -0.2299645
0.092057444 -0.13528787 0.09787529 0.057639632 0.23052205 0.032378715 -0.113265425 0.22161552
0.013545138 0.003948658 0.15810783 -0.08984063 -0.3041696 -0.2200868 -0.27196482 0.76885724
0.17024127 -0.2319102 0.05757409 0.15124887 -0.08185552 0.069641754 -0.10882706 0.02836148
0.21738957 -0.32226312 -0.22745895 -0.1567961 -0.17558075 0.1636077 -0.2646249 0.105431825
-0.2221136 -0.1455669 0.09279547 -0.30808324 -0.26997963 -0.22556669 -0.1597924 -0.13600232
-0.37379515 0.28339866 -0.31526685 -0.18835431 -0.22127834 -0.26062816 0.13654105 0.3993905
0.073001035 -0.09555445 -0.040720794 -0.12866385 -0.0008305793 -0.22845334 -0.072796315 0.12268727
-0.30242875 0.6138903 -0.13513371 0.23867148 0.16738534 0.11804398 -0.25026277 -0.14881735
0.111925535 -0.0079272 -0.0375895 -0.109358676 -0.28832182 0.17479838 -0.14875114 -0.08066498
-0.06389527 0.0948866 -0.15100206 0.2994814 -0.021515615 -0.34210217 0.19111499 -0.1466973
-0.17652176 0.0029527624 -0.1924763 0.1407237 0.11488719 0.078558914 -0.33967814 -0.055805843
-0.008362599 0.12783305 -0.11892257 -0.20552436 0.07878355 0.16349636 0.11519794 0.23490028
-0.019872302 -0.053763036 -0.23302062 0.22785157 0.029483667 -0.20910859 -0.16747926 -0.14871934
-0.32953456 0.10933821 0.19401543 -0.07349271 0.07711021 0.057877436 -0.19124094 -0.16306686
-0.10305187 -0.24901271 -0.170763 0.17405131 -0.1199156 -0.23945932 -0.24098292 -0.011201987
0.19737364 0.07631507 -0.3117692 0.07710847 -0.06824868 -0.17647707 0.0248016 -0.11290862
-0.2514646 -0.0759246 0.19473222 0.1255749 -0.2146911 -0.2984262 -0.31652108 -0.061063442
0.004592509 0.10095394 -0.12810293 0.18037707 0.20785873 -0.12744696 -0.12804872 -0.085691035
-0.21218385 -0.2775054 -0.1771916 -0.14473987 -0.09695678 -0.03269363 0.00886075 0.017818242
-0.024516968 0.05763604 0.11697575 0.14571996 -0.14145346 -0.077928334 -0.04286559 0.025899798
-0.03935196 0.19277091 -0.16885005 -0.15041298 -0.22809316 -0.11522293 0.022596216 -0.13836841
-0.09654618 0.021723751 -0.29001024 -0.18653084 0.054994375 -0.1255087 0.16400422 -0.18475379
-0.035912186 0.11736257 0.4591184 -0.13610835 0.10196813 -0.115619294 -0.12034118 -0.13631393
0.043754518 -0.14750169 -0.22788389 -0.27044457 -0.03204535 -0.19655743 -0.3888593 -0.25799084
0.083231986 -0.19941497 -0.28164324 -0.07700407 -0.18463929 -0.13730982 -0.1113303 -0.21178807
-0.13276936 0.10449835 0.23695865 0.017269496 0.108764276 -0.11300788 -0.29862997 0.0057502966
-0.09949265 -0.092017084 0.06428483 0.17477964 -0.18116626 0.03919119 -0.0469277 -0.21859378
-0.10713207 -0.25566745 -0.2537317 -0.2695216 0.14547001 0.05134831 0.083975025 0.111415565
-0.13881084 -0.28634572 -0.2662741 -0.21095625 -0.19454052 0.23497988 -0.2619797 -0.086204484
0.18338484 -0.027336353 0.14281775 -0.027928075 0.060937483 0.16265112 0.20888202 0.22432661
0.2341996 0.0011673591 0.07413801 -0.30049524 -0.15939742 -0.051620416 0.011925222 0.30972064
00000000: 3eb8 a8be 290c 9dbe cc9c 603e f2ab 803e
00000010: 6ebc e53d c80b 98be c640 69bd d07b 6bbe
00000020: 9d88 bc3d e788 0abe d772 c83d 8917 6c3d
00000030: f90d 6c3e 8b9f 043d b4f7 e7bd 2eef 623e
00000040: 6dec 5d3c be63 813b 05e7 213e 5dfe b7bd
00000050: 1ebc 9bbe 6f5e 61be f93e 8bbe d4d3 443f
00000060: ba53 2e3e de79 6dbe cfd2 6b3d fce0 1a3e
00000070: dea3 a7bd 56a0 8e3d b9e0 debd 5656 e83c
00000080: 5f9b 5e3e acff a4be 00eb 68be 288f 20be
00000090: 71cb 33be c788 273e ea7c 87be a4ec d73d
000000a0: bf71 63be 7d0f 15be 8d0b be3d 16bd 9dbe
000000b0: c53a 8abe f4fa 66be 9ea0 23be 3144 0bbe
000000c0: 1462 bfbe a119 913e a86a a1be f4df 40be
000000d0: ca96 62be 0e71 85be 6bd1 0b3e e97c cc3e
000000e0: 9181 953d 0db2 c3bd d9ca 26bd 75c0 03be
000000f0: 3cbb 59ba acef 69be 3c16 95bd 7743 fb3d
00000100: f1d7 9abe ea27 1d3f 7e60 0abe 4c66 743e
00000110: 1067 2b3e 0bc1 f13d 7122 80be 9363 18be
00000120: 3739 e53d 16e1 01bc 73f7 19bd 71f7 dfbd
00000130: eb9e 93be 59fe 323e 3852 18be ae33 a5bd
00000140: 86db 82bd e853 c23d 49a0 1abe a055 993e
00000150: 8441 b0bc 0428 afbe a6b3 433e d137 16be
00000160: 1fc2 34be 2283 413b 8218 45be e019 103e
00000170: fa49 eb3d 7fe3 a03d 4bea adbe ab94 64bd
00000180: 4803 09bc abe6 023e ad8d f3bd fa74 52be
00000190: 4559 a13d 976b 273e e6ec eb3d b389 703e
000001a0: 3dcb a2bc a136 5cbd f59c 6ebe ec51 693e
000001b0: bb87 f13c 9020 56be af7f 2bbe e249 18be
000001c0: c1b8 a8be b6ec df3d fbab 463e 5983 96bd
000001d0: f5eb 9d3d e410 6d3d aad4 43be 00fb 26be
000001e0: dc0c d3bd 30fd 7ebe 7fdc 2ebe 823a 323e
000001f0: 4f96 f5bd d334 75be 3ac4 76be 8a88 37bc
00000200: 511c 4a3e 134b 9c3d 36a0 9fbe 0ceb 9d3d
00000210: f7c5 8bbd 68b6 34be ba2c cb3c a23c e7bd
00000220: f8bf 80be 5b7e 9bbd e267 473e b596 003e
00000230: fcd7 5bbe 52cb 98be 0d0f a2be a91d 7abd
00000240: c27c 963b f0c0 ce3d 6a2d 03be c4b4 383e
00000250: ebd8 543e 7581 02be 341f 03be c87e afbd
00000260: b946 59be 3015 8ebe b771 35be b036 14be
00000270: 4791 c6bd c1e9 05bd ae2c 113c 90f7 913c
00000280: cfd7 c8bc c513 6c3d fb90 ef3d 9d37 153e
00000290: 2dd9 10be e498 9fbd d493 2fbd d02b d43c
000002a0: 852f 21bd bd65 453e 07e7 2cbe dc05 1abe
000002b0: 4191 69be 00fa ebbd b31b b93c 73b0 0dbe
000002c0: 01ba c5bd 02f6 b13c 397c 94be f101 3fbe
000002d0: c841 613d 5a85 00be b9f0 273e 1930 3dbe
000002e0: a818 13bd c95b f03d 9111 eb3e fd5f 0bbe
000002f0: abd4 d03d cfc9 ecbd 7075 f6bd e195 0bbe
00000300: f037 333d af0a 17be 655a 69be b677 8abe
00000310: fc41 03bd 5a46 49be 9118 c7be 6017 84be
00000320: 8875 aa3d 7033 4cbe 8b33 90be 4fb4 9dbd
00000330: 1512 3dbe f29a 0cbe 2401 e4bd f9de 58be
00000340: b1f4 07be 3b03 d63d 4aa5 723e c278 8d3c
00000350: cebf de3d ad70 e7bd 07e6 98be fc6c bc3b
00000360: cdc2 cbbd 7473 bcbd c4a7 833d 6ff9 323e
00000370: a683 39be f186 203d 4337 40bd 0cd7 5fbe
00000380: 0f68 dbbd d8e6 82be 1fe9 81be bcfe 89be
00000390: 17f6 143e 9b52 523d 19fb ab3d d82d e43d
000003a0: 6e24 0ebe e89b 92be 1455 88be ea04 58be
000003b0: a135 47be 919e 703e 3422 86be fa8b b0bd
000003c0: 3cc9 3b3e 7df0 dfbc d13e 123e 6bc9 e4bc
000003d0: 9599 793d 048e 263e 2be5 553e e0b5 653e
000003e0: 05d2 6f3e 1202 993a abd5 973d 83da 99be
000003f0: 1439 23be ee6f 53bd 0262 433c b493 9e3e

linear_two.weight f4 [3, 256]
-0.38193798 -0.5026925 0.2488389 0.1723243 -0.29362395 0.01948037 -0.05751624 -0.004385516
0.28400555 0.08880587 -0.31035423 -0.0024935075 0.19737945 0.42092708 -0.07771362 0.17090543
0.17238544 0.30470622 -0.0008128983 0.27432254 0.0017874468 0.31649783 -0.050145805 0.34055883
0.037587542 0.1163188 0.3197605 -0.45537966 -0.29315826 0.18869323 0.008417435 0.064658776
0.16734433 -0.18051517 0.012157032 0.05135811 -0.060098313 0.012794724 -0.26685518 -0.14003187
-0.14588603 0.09403531 -0.57080024 0.4001011 -0.6407755 -0.26534587 -0.04091236 -0.158972
0.094728425 0.5147085 -0.3835167 -0.03460598 0.059573635 -0.13368751 0.18516566 0.6090849
0.35684383 0.4376984 0.3880887 -0.4720212 0.31876478 -0.5389338 0.32769346 -0.1491476
-0.006724791 0.2144582 -0.020388123 0.48124325 -0.15182948 -0.8064827 -0.1445689 0.019972984
-0.38657233 0.18208092 -0.0054703373 0.40173697 -0.00066438696 0.33064854 -0.050538816 0.052506514
-0.4131752 0.19684476 0.1343293 0.1517894 0.18939346 0.026916618 0.24003065 0.01808468
-0.035227865 -0.6947264 0.00058404024 0.14572921 0.4665473 -0.056385092 0.18615317 -0.00023247214
0.13538742 -0.13770372 0.29355812 0.0024271172 0.16236143 0.22746974 -0.6123563 -0.48061147
0.5267461 -0.6255897 -0.27321738 -0.39435703 -0.31710458 0.34444588 0.25965723 -0.8336598
-0.16834849 -0.1486259 0.21857722 0.1910522 -0.007323433 0.14033882 -0.08727294 0.051872518
0.31834045 0.0131630385 -0.53613627 0.14386651 -0.22213978 0.005054657 0.011808702 -0.20855318
-0.65371054 -0.65866745 0.19063161 0.18132491 -1.0386184 -0.5679754 0.2711188 0.3468413
0.04156666 0.0016852507 -0.46449053 0.28611588 0.54825354 0.05330962 0.05887045 -0.21441294
-0.07021296 -0.185788 0.3880647 0.21697472 0.5322436 0.44153297 0.038711417 0.39032623
-0.06045863 -0.18036042 -0.16916324 0.31781912 0.3514186 -0.58718604 0.06828678 -0.026091821
0.1132392 0.42788562 0.007915933 0.176964 -0.8214194 0.3748602 0.42810217 0.1680279
-0.16448894 0.1709222 -0.33308068 -0.2738227 0.004026981 -0.52403677 -0.5752816 -0.086601675
0.35033503 0.26386628 0.057158463 -0.14509523 -0.23191662 -0.38339537 0.2526256 0.24937502
0.003261052 -0.109741256 0.17430183 -0.0503365 0.09812605 0.16265935 0.35781848 0.5785048
0.1767952 -0.02838273 -0.13164628 -0.8561668 0.13984767 0.4327917 0.072270006 0.014600694
0.26830718 0.4696108 0.38835526 0.0997752 -0.11752818 -0.14706874 -0.5687733 -0.10877201
0.005240267 0.2334109 0.16891323 0.09654275 0.363974 -0.3217279 0.08530321 0.4781484
0.29160863 -0.028158255 0.10976364 0.2383 -0.23103015 -0.21736853 -0.3673204 0.46716565
0.14764205 -0.030649822 -0.038511753 -0.048072755 -0.1321088 0.09214357 0.31442416 0.098129585
-0.065605134 -0.36928472 -0.2598265 -0.011239141 0.54829895 0.5067406 -0.48177388 0.26991856
0.23290174 0.28017196 -0.9128051 0.120767064 0.14680561 -0.31281492 -0.44015354 0.3002527
0.077797905 0.032680884 -0.33184057 0.01632623 0.03624758 -0.29225555 0.4366991 0.15713382
00000000: 608d c3be 75b0 00bf a0cf 7e3e c875 303e
00000010: e155 96be 4c95 9f3c 2696 6bbd 60b4 8fbb
00000020: 2d69 913e dadf b53d c0e6 9ebe 1d6a 23bb
00000030: d71d 4a3e c183 d73e 5228 9fbd d501 2f3e
00000040: cf85 303e 7402 9c3e ae18 55ba 0174 8c3e
00000050: c348 ea3a 010c a23e b065 4dbd ba5d ae3e
00000060: 65f5 193d 8d38 ee3d a6b7 a33e 8627 e9be
00000070: d718 96be cc38 413e 48e9 093c d26b 843d
00000080: 505c 2b3e f8d8 38be 4a2e 473c e25c 523d
00000090: a629 76bd f6a0 513c 3ea1 88be 8464 0fbe
000000a0: 2663 15be 9695 c03d f71f 12bf 0dda cc3e
000000b0: dd09 24bf 6adb 87be b893 27bd 8ec9 22be
000000c0: fa00 c23d f0c3 033f 4d5c c4be 00bf 0dbd
000000d0: 7c03 743d 61e5 08be 119c 3d3e fdec 1b3f
000000e0: 3cb4 b63e 011a e03e 90b3 c63e c3ac f1be
000000f0: 2335 a33e 91f7 09bf 70c7 a73e 26ba 18be
00000100: a35b dcbb ee9a 5b3e fe04 a7bc 8465 f63e
00000110: 3079 1bbe a675 4ebf df09 14be 629e a33c
00000120: cfec c5be 6c73 3a3e 8440 b3bb 78b0 cd3e
00000130: 412a 2eba c44a a93e ca01 4fbd 1211 573d
00000140: b38b d3be ac91 493e 9f8d 093e ae6e 1b3e
00000150: 5cf0 413e 3d80 dc3c 98ca 753e 5326 943c
00000160: 184b 10bd 97d9 31bf 471a 193a 0a3a 153e
00000170: 4adf ee3e 0ef4 66bd f09e 3e3e c4c3 73b9
00000180: 00a3 0a3e 3402 0dbe 404d 963e 4510 1f3b
00000190: 1342 263e d4ed 683e 62c3 1cbf b512 f6be
000001a0: d5d8 063f a626 20bf 26e3 8bbe 2ae9 c9be
000001b0: 885b a2be 365b b03e cbf1 843e bb6a 55bf
000001c0: 8c63 2cbe 6331 18be b5d2 5f3e 30a3 433e
000001d0: 69f9 efbb fbb4 0f3e 28bc b2bd 4778 543d
000001e0: 85fd a23e c9a9 573c 3a40 09bf be51 133e
000001f0: 9c78 63be 89a1 a53b 4979 413c f78e 55be
00000200: 9359 27bf 6e9e 28bf ef34 433e 3dad 393e
00000210: 73f1 84bf d666 11bf 15d0 8a3e 2f95 b13e
00000220: cd41 2a3d a1e3 dc3a b4d1 edbe c87d 923e
00000230: 585a 0c3f 305b 5a3d 2422 713d 118f 5bbe
00000240: d0cb 8fbd 363f 3ebe 6bb0 c63e 9f2e 5e3e
00000250: 1e41 083f 9c10 e23e dd8f 1e3d d7d8 c73e
00000260: 78a3 77bd 67b0 38be 2139 2dbe 30b9 a23e
00000270: 24ed b33e d351 16bf f0d9 8b3d 84be d5bc
00000280: f4e9 e73d d313 db3e d4b1 013c 0d36 353e
00000290: 8b48 52bf aded bf3e 3530 db3e 810f 2c3e
000002a0: ca6f 28be 3b06 2f3e 8d89 aabe 7d32 8cbe
000002b0: c4f4 833b 4627 06bf a845 13bf 385c b1bd
000002c0: 1d5f b33e 7b19 873e fe1e 6a3d d893 14be
000002d0: 8d7b 6dbe 664c c4be 2558 813e 2a5c 7f3e
000002e0: 60b7 553b 06c0 e0bd 2e7c 323e a52d 4ebd
000002f0: 4ff6 c83d 2c90 263e fc33 b73e e418 143f
00000300: cd09 353e e682 e8bc 48ce 06be bf2d 5bbf
00000310: 3a34 0f3e e096 dd3e 4c02 943d c037 6f3c
00000320: 8f5f 893e d470 f03e 80d6 c63e f156 cc3d
00000330: 9db2 f0bd 3099 16be 219b 11bf dcc3 debd
00000340: 8cb6 ab3b 4403 6f3e 97f7 2c3e 35b8 c53d
00000350: cd5a ba3e 85b9 a4be 73b3 ae3d decf f43e
00000360: ba4d 953e 24ac e6bc c2cb e03d ea04 743e
00000370: 2b93 6cbe db95 5ebe 6b11 bcbe 5630 ef3e
00000380: 7a2f 173e 5615 fbbc 80be 1dbd f0e7 44bd
00000390: 8747 07be c5b5 bc3d 34fc a03e 2af8 c83d
000003a0: fc5b 86bd e312 bdbe fb07 85be 6024 38bc
000003b0: 525d 0c3f c1b9 013f 11ab f6be c432 8a3e
000003c0: cb7d 6e3e b372 8f3e 98ad 69bf b954 f73d
000003d0: 3654 163e 4729 a0be ce5b e1be b9ba 993e
000003e0: 8254 9f3d 64dc 053d 02e7 a9be 96be 853c
000003f0: 5878 143d 85a2 95be 0697 df3e b0e7 203e

linear_two.bias f4 [3]
0.27750888 -0.01733927 -0.018786207
00000000: a515 8e3e 160b 8ebc 88e5 99bc
