survival/model/newer_model120games.pth (torch, 17167 bytes, 4 tensors)

linear_one.weight f4 [256, 11]
000000 5c 03 09 3e 70 c7 32 3e 6e 64 96 bd f7 04 0f 3e
       0.13380188 0.17458892 -0.07343374 0.13966738
000010 86 65 1d 3e f1 77 df be bb d7 8c 3d aa 01 20 3e
       0.1537076 -0.43646196 0.06877085 0.15625635
000020 a0 3e 0b 3b 48 42 ee be 98 cd c5 bd ee ce 64 3e
       0.0021247044 -0.46534944 -0.096583545 0.22344562
000030 61 a5 9b bd 8f ea dd bc f8 c7 02 3f a5 a1 9e be
       -0.07599903 -0.027089385 0.5108638 -0.309827
000040 ff 18 0f bf 4e 27 bb 3e eb f0 da be 54 0f 9b 3e
       -0.55897516 0.36553425 -0.4276193 0.30285132
000050 57 95 09 3f 67 5d 94 be 8c a4 89 3c 9a 98 21 3b
       0.537435 -0.2897751 0.016802095 0.0024657608
000060 a1 f8 37 3e 24 36 73 3e ec f2 bc 3e ec c8 8a 3d
       0.17965938 0.23751122 0.36904085 0.06776604
000070 83 31 a1 3d 71 b3 1b 3e 99 4b 00 be 69 d9 92 3e
       0.07870772 0.1520517 -0.12528838 0.28681496
000080 3e 4f e9 bd 0c b2 53 3e 65 ed 5a be 4e 02 95 3e
       -0.113920674 0.20673388 -0.21379621 0.2910332
000090 40 10 17 be 21 bd e4 3e 04 8e ba 3e e8 0c 74 3e
       -0.14752293 0.44675544 0.36436474 0.23833048
0000a0 7e 94 02 3e 7d ac dd be 1c 33 14 3e ca f8 9a be
       0.12751958 -0.4329566 0.14472622 -0.30267936
0000b0 de b6 1c 3d 63 13 95 3d a1 cb 1f be ee 69 6c be
       0.038260333 0.07279088 -0.15605022 -0.23087284
0000c0 e1 e5 fa 3d 10 68 29 be d8 e5 2e 3e f2 89 e6 bd
       0.12250877 -0.16543603 0.17079866 -0.1125678
0000d0 f8 bf ee bd 98 93 ac 3d ce 9c 0f be 5e 07 8c be
       -0.11657709 0.08426589 -0.1402466 -0.2734937
0000e0 ae 68 9b 3d db 6b 02 3d f6 6b ed 3d 41 1e 0b 3e
       0.075883254 0.03184114 0.115928575 0.1358576
0000f0 f1 24 8f be 19 48 32 3c df d5 c8 bd 01 74 31 3c
       -0.27957872 0.010881447 -0.09806418 0.01083088
000100 bf cf 1c be 29 83 80 be 34 0d 03 be 78 96 35 3e
       -0.15313624 -0.25100067 -0.12798005 0.1773318
000110 0f cf a7 3e e9 7c 9b 3d 21 25 04 3e 4f e3 d3 bd
       0.3277516 0.07592184 0.12904789 -0.1034609
000120 1a 5b 6a 3e 8d 51 00 3d 56 f9 6c 3e 55 21 b8 bd
       0.22886315 0.031327773 0.23141989 -0.089907326
000130 17 c9 66 3d ad d8 cf bb 83 fc 94 3d bc 14 e9 bd
       0.056344118 -0.0063429684 0.07274725 -0.11380908
000140 cd 64 3e be c8 31 18 be a3 89 73 3e 4c 51 31 3f
       -0.1859314 -0.1486274 0.23782973 0.69264674
000150 a1 9f 22 3e 50 93 59 3e ef 1b 33 be 21 d4 16 bf
       0.15881206 0.21247602 -0.17491125 -0.58917433
000160 8c ab a1 be 5d 77 79 3d ea 75 d4 bd 4b 58 11 3e
       -0.31576192 0.06090485 -0.10374053 0.14193837
000170 bd d5 00 3f 65 eb 6b be 0c e3 68 bd be aa 79 3e
       0.5032614 -0.23039015 -0.056857154 0.24381539
000180 cb 65 9d bd 41 30 f9 3e b4 12 d1 3e 14 15 ab 3e
       -0.07685431 0.48669627 0.40834582 0.3341452
000190 47 c6 02 bf 0f 2d 3f 3e 78 91 d7 3a a7 01 07 be
       -0.510838 0.18669532 0.0016446551 -0.13184224
0001a0 47 7f 8d b9 10 1e 3c bd 27 f3 d0 be ef df bc be
       -0.00026988445 -0.045927107 -0.4081051 -0.36889598
0001b0 58 e7 d9 be ff ff e0 be 20 8e bb bd 7c fb cc bd
       -0.42559314 -0.4394531 -0.091579676 -0.10008904
0001c0 aa ea 38 3e 1a c3 a6 be 70 94 c3 3e bf f9 cf 3e
       0.18058267 -0.32570726 0.38199186 0.4062023
0001d0 ce 0d 88 be 83 bc c7 3e b8 d3 75 3e a3 83 28 be
       -0.26573032 0.3901101 0.24006546 -0.16456465
0001e0 13 b0 00 3f 11 0f 6c be 35 57 18 3e 3e 2c 53 be
       0.5026867 -0.23052622 0.14877017 -0.20622346
0001f0 1f 05 ec be 23 8c 44 bc a7 4b 0d 3f 7e 73 16 be
       -0.46097657 -0.011996302 0.5519356 -0.14692494
000200 e1 35 f5 3e 5c 7e 45 3e 01 a4 dd be 55 9d aa 3e
       0.4789267 0.19286484 -0.43289188 0.3332316
000210 70 58 59 3e 09 21 4a be 27 b2 91 bd de 69 e3 3e
       0.21225142 -0.19739164 -0.07114058 0.44416708
000220 3c e9 84 3d 60 72 67 3e de 5c 1b bd ec 78 ad bd
       0.064897984 0.22602224 -0.037930362 -0.0847033
000230 d6 04 6d 3e 2d f3 b0 3d b5 9c e0 bd cc 1e c6 be
       0.23146376 0.08640132 -0.109673895 -0.3869537
000240 68 2e 66 be 46 68 b2 3e 22 84 d3 3d 6d 80 17 be
       -0.2247864 0.3484518 0.10327937 -0.14795084
000250 d2 a4 3e 3e 02 20 2d 3d 96 82 48 3e 24 d3 c5 3e
       0.18617561 0.042266853 0.19581065 0.3863765
000260 9d 9e c6 3e c7 e0 7f 3e a5 35 d5 bd bd e0 bb bd
       0.38792887 0.2498809 -0.104106225 -0.09173725
000270 d8 1a 0e bc 1e d5 0a bd a3 b3 97 be 34 aa c1 3d
       -0.008673392 -0.03389465 -0.2962924 0.09456292
000280 94 ed 69 be db 66 f0 bd cb a7 0f 3e a7 22 dd bd
       -0.22844535 -0.11738368 0.14028852 -0.10797625
000290 29 64 b9 3d f8 af 1f be 49 2c 7b bd 98 ea 2d bd
       0.09052307 -0.1559447 -0.06132153 -0.042460054
0002a0 c0 7a 32 3d c2 19 e5 3d 8e 0a 02 3d 43 82 04 3e
       0.043574095 0.111865535 0.031748347 0.12940316
0002b0 24 de 1b 3e 77 ca 47 3e 7b 4d 43 3e 67 8c 53 3e
       0.15221459 0.19510828 0.19072525 0.20659028
0002c0 9e da f9 bd d3 2d b1 bb c8 28 50 3e e1 01 c3 bd
       -0.12199901 -0.005407074 0.20328057 -0.09521843
0002d0 68 95 cd be 99 6b 15 3f 52 be 14 3f f1 56 c7 3d
       -0.4015305 0.58367306 0.58102906 0.0973338
0002e0 fe 9d f4 3e d4 82 0f bf 9b 96 d5 be b3 6f da bd
       0.47776788 -0.56059 -0.41716465 -0.10665836
0002f0 49 99 90 bd ea ab 09 be 54 85 40 3d b2 d9 08 bf
       -0.07060487 -0.13444486 0.04700215 -0.53457177
000300 e9 91 92 3e bf 8e e9 be 3e bc 29 bf fd 00 66 3d
       0.28626946 -0.4561672 -0.6630286 0.056153286
000310 f8 44 e7 3e 7f 28 18 be cb 86 34 be 60 43 e9 bd
       0.45169806 -0.14859198 -0.17629544 -0.11389804
000320 18 c3 ca 3d e4 20 80 3d 5c 2c c0 bd d8 4c cc 3d
       0.099004924 0.062562734 -0.09383461 0.09975594
000330 b6 10 37 be 80 64 82 be 6e a1 6c be 4c 01 e9 3d
       -0.17877468 -0.254673 -0.23108456 0.113772005
000340 4e 3a 4e be ae a5 bb be 23 83 b1 be 46 66 56 3e
       -0.20139429 -0.3664984 -0.34670362 0.20937452
000350 0a 42 7f 3e f9 b3 5f be 07 9a 12 bc 32 fa 2e be
       0.24927536 -0.21845998 -0.008947856 -0.1708763
000360 fe f6 60 3b 10 6c 65 3e c0 b8 50 be ee 90 9f be
       0.0034326906 0.22404504 -0.20382977 -0.3116526
000370 84 16 47 be 7b 80 53 3e 5a 19 05 3e 4a 07 90 3d
       -0.19442183 0.2065448 0.12997952 0.0703264
000380 ba 2d 41 3e 23 d0 62 be 05 71 fd 3e a6 4b 1a bd
       0.188651 -0.2214971 0.4950029 -0.0376698
000390 b2 1e 12 3d 88 f5 aa 3c 1e a2 f8 be 19 39 9b 3e
       0.035673805 0.020869032 -0.48561186 0.30317
0003a0 e6 08 0a be 3b 4d 18 be d3 e6 94 3e 4f f6 5f 3e
       -0.13479957 -0.14873211 0.29082355 0.21871303
0003b0 ee 60 8d 3d 61 f2 5a 3e 41 44 c8 3d 0c 08 54 3d
       0.069032535 0.21381523 0.097786434 0.051765487
0003c0 3e a8 84 bd 5a 53 0b 3e 1a 5a 29 bd e3 b8 db 3d
       -0.06477402 0.13606015 -0.041345693 0.10728624
0003d0 1c ca a1 3c d8 2c 29 3d ee ea 59 be d2 92 6c 3e
       0.019749694 0.041302532 -0.21281025 0.23102883
0003e0 4f 8b f5 bd 05 a9 43 3e 12 64 36 3e cb a8 04 3e
       -0.11989462 0.19107445 0.17811611 0.12955014
0003f0 79 9f 1b 3d fb 67 12 3e 29 ef 57 be 0b 5c 44 3e
       0.03799388 0.14297478 -0.21087326 0.19175737

linear_one.bias f4 [256]
000000 53 a2 62 be 77 a6 6b be 69 48 ce 3e 75 4d 25 bd
       -0.22132234 -0.2301272 0.4028962 -0.040357072
000010 f8 5e 96 be 75 3c 81 be 4f 9b 16 3f 0c 11 d3 3d
       -0.2936933 -0.25241438 0.5883073 0.10305986
000020 fa b4 59 bd 98 17 4e 3e 3e 75 70 3c fa 93 98 3e
       -0.05315111 0.20126188 0.01467639 0.29800397
000030 c0 7c 12 3f 10 16 ae 3e b4 43 7a be 6c f4 72 be
       0.57221603 0.34001207 -0.24439889 -0.23726052
000040 17 d7 1a bd d9 a3 58 3d b1 cb 84 be 90 02 52 be
       -0.037802782 0.052890632 -0.25936654 -0.2050879
000050 88 38 76 3d 27 94 95 3e 4e 4d 8e 3e 25 44 8d bd
       0.060112506 0.29214594 0.27793354 -0.06897763
000060 41 79 c3 bd 12 b1 32 3e b9 f3 87 3e d5 d0 ca bd
       -0.09544612 0.1745036 0.26553133 -0.09903113
000070 e4 c0 41 be 3e 8d f9 3d 19 f8 36 be e1 41 d1 bd
       -0.18921238 0.12185143 -0.17868079 -0.102176435
000080 b0 82 07 3d 01 26 35 3f b1 0e a1 3d ee 1a 19 be
       0.033083618 0.70761114 0.0786413 -0.14951679
000090 21 d7 95 be e6 1c d3 3e f3 52 a8 bd c0 61 7a 3e
       -0.29265693 0.41232985 -0.08218946 0.24451351
0000a0 4f 44 12 3e cb 2d 91 3e 41 dc 14 3e d1 1f 72 be
       0.1428387 0.2835525 0.14537145 -0.2364495
0000b0 6b c7 7e 3d 0e 9c 02 3f ec c3 37 be cb 76 04 3f
       0.0622019 0.5101937 -0.17945832 0.51743764
0000c0 c6 cc 7b 3e 51 55 51 3e 1e 1d 90 be 4c fa f6 3d
       0.24589834 0.20442702 -0.28147215 0.12059459
0000d0 24 66 ae 3e 36 da 27 be f6 ee d7 3d c6 ae 6d 3e
       0.34062302 -0.16391835 0.10543625 0.23211202
0000e0 ab 14 df bc ab 38 bc 3d 9b a3 f3 bd 2a 4d 1c 3d
       -0.027231535 0.09190496 -0.1189644 0.038159527
0000f0 cc df f1 3e de 4f 20 be cf 60 83 3e 1f 09 40 3f
       0.47241056 -0.15655467 0.25659797 0.7501392
000100 0f 24 85 be e0 8e 40 be ca dc 91 3e d3 d9 0a 3e
       -0.26004073 -0.18804502 0.2848876 0.13559656
000110 a8 d8 b5 be 17 31 1b 3d 3a bf 01 be fc e1 f5 3e
       -0.35516858 0.037888613 -0.12670603 0.48023975
000120 3c 04 00 3f 26 f0 0e 3f ea e7 3a 3f ef 9c a5 3b
       0.5000646 0.5583519 0.7301012 0.0050541083
000130 33 35 9b 3d c6 8c 1b 3f d8 7b 5f 3e 78 83 b0 be
       0.07578506 0.6076168 0.21824586 -0.34475303
000140 ab 56 ad 3c b6 a8 c8 3e 5e 15 76 3c 16 8c b2 bd
       0.02115949 0.39191216 0.015019743 -0.087181255
000150 67 f8 95 be 72 7e 87 3d 57 0d 8f be 54 9b 22 be
       -0.29291078 0.066159144 -0.27939865 -0.15879565
000160 af 0d 1d be 7a bb 57 3e 5e 15 34 3f 5c 3f 8b be
       -0.15337251 0.2106761 0.70345104 -0.27196777
000170 18 d1 9d 3e 97 84 98 3e 1b 53 15 bd d1 9a 32 3e
       0.30823588 0.29788658 -0.03645621 0.1744187
000180 41 cf 03 3e e3 d3 e0 bd 20 41 43 3e 6a 28 82 3e
       0.1287203 -0.10977914 0.19067812 0.25421458
000190 66 7a 0e be 9a fe a7 3e d0 9b 28 be e4 a6 11 3f
       -0.13913879 0.32811433 -0.16465688 0.5689528
0001a0 23 56 e3 3d f7 b7 70 3e 92 bb dc bc 30 88 87 3e
       0.11100414 0.23507677 -0.02694491 0.2647109
0001b0 b5 24 cb bb cb f6 d3 3e f5 38 84 be 7a 40 18 be
       -0.006199444 0.41399226 -0.25824705 -0.14868346
0001c0 cc f5 0a be 56 e0 ce bd ce a2 53 3e 63 8c ba 3e
       -0.13570327 -0.101013824 0.20667574 0.36435232
0001d0 d4 d3 c0 3e a1 ca 90 3e c8 b2 19 3d 69 76 87 3e
       0.37661612 0.28279594 0.037524015 0.26457527
0001e0 85 25 21 3e 67 00 8b bd ff af fc 3d 44 ad 40 3e
       0.15736969 -0.06787186 0.12338256 0.18816096
0001f0 58 6f 30 3f 64 b3 3b 3e 19 38 f4 3e 0e ff 8a 3d
       0.689199 0.18330151 0.4769905 0.06786929
000200 dc e3 c5 bd f5 e0 53 be bc 38 51 3e 02 55 a1 3d
       -0.09662601 -0.20691283 0.20431799 0.07877542
000210 6e ef b1 bd b8 7e 52 be f2 f3 8e 3d 9b 36 99 3e
       -0.08688246 -0.20556152 0.069801226 0.29924473
000220 dd 67 21 3e 47 1c 18 3f 4e 84 79 3e a0 f8 a1 3e
       0.15762277 0.5941815 0.24366876 0.31634998
000230 fa d0 58 3e 19 c4 b6 3e 36 e0 61 be 90 e7 2f 3f
       0.21173468 0.35696486 -0.22058186 0.6871271
000240 5e ab 0d 3f e8 80 f7 bd af 9f 8e be a2 ea 66 be
       0.5533961 -0.12085134 -0.27856204 -0.22550443
000250 15 94 e3 3e 76 94 ea 3e 01 23 a9 bc 47 2b 6b 3e
       0.44448915 0.45816392 -0.020646574 0.22965728
000260 b7 1f c3 3e cd c6 42 3f 1c 6f 31 be 34 c3 99 bd
       0.38110134 0.76084596 -0.17327541 -0.07507935
000270 af 38 d2 3c 99 c2 c0 bd 75 20 97 3e eb e4 c7 bd
       0.025661794 -0.094121166 0.2951695 -0.097604595
000280 0b 3e c2 be 55 26 8e 3d 5a cd 88 3d 2d 4c 05 be
       -0.3793796 0.06940905 0.06679793 -0.1301734
000290 7b 8f 32 be 40 ae 00 3f af ab 7d bd 4f 30 65 be
       -0.17437546 0.50265884 -0.06193131 -0.2238171
0002a0 1b 64 70 3e 19 8c 2a 3f b7 d6 34 be 9d aa c7 3d
       0.23475687 0.6662002 -0.17660032 0.09749339
0002b0 a2 ba 2b 3f cf e4 bc 3e 47 a5 90 3e a5 45 ec 3e
       0.67081654 0.36893317 0.28251097 0.46146885
0002c0 5b 20 3f bd ae ad cc bd 15 ee 0f be b6 bf 97 bc
       -0.046661716 -0.09994064 -0.14055665 -0.018524032
0002d0 27 d8 6f be 5a a6 3f 3e 99 54 73 3e b3 cd e4 3e
       -0.234223 0.18715802 0.2376274 0.44688186
0002e0 3d a2 de 3c 7d 7d 00 3f 36 b1 10 3e dc b9 30 be
       0.02717697 0.5019148 0.141301 -0.172584
0002f0 a0 71 d6 bd 1d 2a 3c 3d 95 61 e6 bd 2a 5d 10 3e
       -0.10470891 0.0459386 -0.11249081 0.1409804
000300 c9 2d 1a be 34 e7 c7 3d 85 2e 89 be da 2e de bd
       -0.15056528 0.09760895 -0.26793304 -0.1084878
000310 3d e7 43 3f 60 83 96 be 11 30 a7 3e 3f e2 27 3e
       0.76524717 -0.29397106 0.3265386 0.163949
000320 51 7d d7 3e 40 e4 23 3f 17 ba 05 be d1 9b 91 3d
       0.42087796 0.64020157 -0.13059269 0.07109798
000330 eb 76 e6 3e 86 60 83 3e 45 54 4f bc 51 de c7 3e
       0.45012602 0.2565958 -0.012654369 0.390368
000340 8e fc 07 be c7 61 70 3d 1e 61 9e bc d8 78 f1 3e
       -0.13279936 0.058686998 -0.019333418 0.4716251
000350 c2 25 23 3f a1 de 27 3f 33 70 02 be 39 7a 0c bb
       0.6372949 0.6557408 -0.12738113 -0.0021435155
000360 cc fe fb 3e 35 db 1a 3f 2b 33 72 bd aa d2 e6 3e
       0.49217832 0.60490733 -0.05913083 0.450826
000370 dd 7e a6 3e b4 cf c1 3e 05 f0 17 be 1e 84 0b 3f
       0.32518664 0.37853777 -0.14837654 0.5449847
000380 72 b4 1c 3f 7b b0 d4 bd a4 4d 75 bd d2 2f 10 be
       0.6121284 -0.103852235 -0.059888497 -0.14080742
000390 ae 2c 8d 3e 3a 97 0d 3f 55 0f e7 bb d4 07 3d 3f
       0.2757315 0.5530888 -0.0070513883 0.7384007
0003a0 a2 89 8d 3e d9 33 2f 3e a6 40 a2 be 07 d8 9a bc
       0.27644068 0.17109622 -0.31689948 -0.018901838
0003b0 5a 03 67 be 49 c9 ac bd 70 66 5b be af 8b e0 3e
       -0.22559872 -0.084368296 -0.21425796 0.4385657
0003c0 4a 88 62 3e 9b 47 c4 bd 37 13 88 be 1d 66 13 3d
       0.22122303 -0.0958397 -0.2657716 0.035986055
0003d0 2e 19 ab be d1 b3 ec 3e 63 1c 49 3d db 0e a8 3d
       -0.33417648 0.4623094 0.049099337 0.082059585
0003e0 25 4b 4e 3e 57 e6 49 3f ba 60 db 3e 36 6d d9 3b
       0.20145853 0.78867096 0.42847234 0.0066353334
0003f0 f9 c5 72 3e c6 d9 20 3f 76 c0 d6 bd e5 9e b2 3e
       0.23708333 0.62832296 -0.10485928 0.34886852

linear_two.weight f4 [3, 256]
000000 63 63 d4 3c 6a 14 4e bf 98 b4 25 be 08 c9 4e be
       0.025926298 -0.804999 -0.16182172 -0.20193875
000010 98 70 bb bc 63 eb e1 bd 4d 0d 14 be 53 f5 47 bf
       -0.022880837 -0.110312246 -0.14458199 -0.7810871
000020 4c cc e5 be b5 54 62 be 27 6e 97 be 98 d6 08 bf
       -0.4488243 -0.22102626 -0.29576227 -0.53452444
000030 1f 68 db bd e9 ea 23 be 13 8b b4 3c 38 4e fc bb
       -0.10713219 -0.1600758 0.022038972 -0.007699754
000040 c9 e8 4a bf f7 c6 a3 3e c8 ce 73 bc d6 87 42 bc
       -0.7926145 0.31987736 -0.014880843 -0.011873206
000050 b9 6f 79 be 68 0b cf bd cb 02 a4 bd 64 0d bb bd
       -0.24359025 -0.101095974 -0.08008345 -0.091334134
000060 81 ee 54 bf 0b d1 a4 3e dd 4a be bd 20 8d 11 bb
       -0.8317643 0.32190737 -0.09291623 -0.0022209361
000070 c5 75 aa bc 69 d1 0b be 0d 92 33 bf a7 fd ea 3c
       -0.02080811 -0.13654102 -0.7014473 0.028685404
000080 2d 70 c3 bc f2 c8 14 be a9 fb 3e be 8a b3 60 be
       -0.0238572 -0.1452978 -0.18650688 -0.21943489
000090 ba cf 09 bf de a1 ab be ce fd a6 3e 89 a0 de bc
       -0.5383259 -0.33521932 0.32615513 -0.027176159
0000a0 e3 59 cf bd de 41 44 bf 11 7b 17 be f7 81 e0 3e
       -0.101245664 -0.76663005 -0.1479304 0.43849155
0000b0 54 da fe be 6b ca 0d bf df 96 f2 be 10 82 95 bd
       -0.49775946 -0.5538699 -0.4738073 -0.07300198
0000c0 7e 1e 60 be 02 77 cd bd fc 4b 4e 3d 72 62 14 be
       -0.21886632 -0.100324646 0.050365433 -0.14490679
0000d0 e4 6f 29 be 4d 6b cc be 7a d2 4c bd 03 38 04 bf
       -0.16546589 -0.39925614 -0.050005414 -0.5164797
0000e0 13 15 9e bd 14 c2 09 be 6a 13 e0 be 99 d2 2e bd
       -0.07718863 -0.13452941 -0.43764812 -0.04268131
0000f0 ce 70 68 be c7 99 aa bc 79 f5 86 bc e9 cc 0e be
       -0.22699282 -0.02082528 -0.016474472 -0.13945355
000100 b2 9e 63 be c2 e9 ea 3b fb bb 7a 3e 2b c0 d0 3e
       -0.22228506 0.0071689794 0.24485771 0.40771613
000110 a7 76 1e 3d 35 84 64 3c 56 1b c2 bc a0 52 1a be
       0.038687374 0.013947536 -0.023694675 -0.15070581
000120 71 e6 de bd 4b 0c fa bd 8c 37 44 be d0 23 a0 3d
       -0.10883797 -0.12209376 -0.19161814 0.07819331
000130 39 c5 50 be 23 da d2 bd 95 1d c0 bd 06 60 af 3e
       -0.20387734 -0.102955125 -0.09380642 0.34252948
000140 6c 4f fa be 4e 17 ca bd ee 19 02 bf ef d5 2c 3e
       -0.4888872 -0.09867726 -0.50820816 0.16878484
000150 5e dc 3d bd 31 72 2d be b4 ee 5d bc 5b b6 34 3d
       -0.046352737 -0.16938092 -0.013545681 0.04411922
000160 52 1c b2 bd 5a 6f f4 bc df 91 1c be f4 d9 b1 be
       -0.08696808 -0.029838253 -0.1529002 -0.34736598
000170 fd 47 4f be c6 f2 8b bf 17 d1 d4 be 37 21 8b 3e
       -0.20242305 -1.0933464 -0.41565773 0.27173778
000180 d1 46 31 3b 88 a3 3c bc 5d 71 e5 bd 81 2d ce 3e
       0.0027050267 -0.011513598 -0.11203263 0.40269092
000190 ae 21 bd bc 30 ff e4 bd 6f 75 8f bd 7c f5 cf bd
       -0.023087349 -0.11181486 -0.070048206 -0.10154244
0001a0 62 26 e3 be 52 4e 9b bd 55 76 8f bd 64 15 0d be
       -0.4436522 -0.07583298 -0.07004992 -0.13777691
0001b0 d9 c7 ab bc 65 3c c0 bd 27 18 b3 be b0 6a 3f 3c
       -0.020969318 -0.09386519 -0.34979364 0.011683151
0001c0 d7 89 46 bf 2d 26 15 bf 51 9e f2 be be 5b 2d bc
       -0.77554077 -0.58261377 -0.4738641 -0.010580955
0001d0 67 e3 05 be 69 c9 2c be a2 81 19 bd 06 5b 3a bf
       -0.13075028 -0.16873707 -0.037477143 -0.7279514
0001e0 7e 56 8d 3e 19 55 ed 3e 25 53 00 be c4 84 d3 3e
       0.2760505 0.46353987 -0.12531717 0.4131223
0001f0 64 1b 02 be 28 ad 03 3e f0 7e 7c bd f0 37 a4 bd
       -0.12705761 0.12859023 -0.061644495 -0.08018482
000200 e2 29 f5 be 08 d0 91 3c 70 54 16 bf e0 5d 2e bf
       -0.47883517 0.017799392 -0.5872259 -0.6811199
000210 5e fc 08 bf b8 31 6a 3e f4 c3 17 bd f1 9d 03 be
       -0.5351008 0.22870529 -0.03705211 -0.12853219
000220 16 7f 7c be f9 43 07 be a4 82 ba be 81 eb 40 bd
       -0.24657854 -0.13209523 -0.36427796 -0.047099594
000230 44 8b ce bd 12 e7 20 be c8 66 6e bd 3d 53 2b be
       -0.100851566 -0.15713146 -0.05820349 -0.16730972
000240 12 65 dd bd 5e f2 57 be d6 d0 29 3c 80 81 3e 3a
       -0.10810293 -0.2108855 0.010364732 0.0007267222
000250 f0 f1 9d bf ab 49 f9 bd 05 c0 54 bf 9d 72 ab be
       -1.2339458 -0.12172254 -0.831055 -0.3348588
000260 86 ce a5 bd ba 91 0c be 00 0e 6b bd b0 fb 0e 3f
       -0.08096032 -0.13727465 -0.0573864 0.55852795
000270 1d 51 65 3e bd b3 ac 3c d1 71 a7 bd 16 cf 4a be
       0.22394224 0.0210818 -0.08176006 -0.1980556
000280 e6 68 09 bf 0d de a2 3c ac bc d8 be 46 a7 0d be
       -0.5367569 0.019881273 -0.42331445 -0.13833341
000290 bf c3 31 3c a8 57 b1 bd c4 fe 34 be b4 06 ee 3c
       0.010849892 -0.08659297 -0.1767531 0.02905593
0002a0 1a 63 ad 3e e1 b3 08 be fc 26 05 bf e8 88 6b bf
       0.3386467 -0.13349868 -0.5201261 -0.9200578
0002b0 f8 34 21 be 00 6d d1 bd 45 6f e6 be ce 42 b4 bd
       -0.15742862 -0.10225868 -0.45006767 -0.088018045
0002c0 e5 65 90 3e c3 e0 5b bf 8e 87 06 bd a4 92 30 bf
       0.2820274 -0.85889834 -0.03284412 -0.68973756
0002d0 c1 09 3c 3e 69 77 a7 be 0f 5c 06 be 53 2a 18 be
       0.18363096 -0.3270829 -0.13121055 -0.14859895
0002e0 e7 2b 20 bf 59 73 cc be 72 44 95 bd 65 8f 7c 3e
       -0.6256699 -0.39931753 -0.072884455 0.24664076
0002f0 0c f0 ba bc ff 6c 8a bf cc a5 95 3d bc 5b b8 3c
       -0.022819541 -1.0814513 0.07307014 0.02250468
000300 58 00 c4 3c 44 9b 15 3c f7 b5 54 3e a5 f5 9f be
       0.023925945 0.0091312565 0.20772539 -0.312421
000310 6f d1 10 be 22 80 ee bd 92 c8 cb bd 0d f3 f7 bd
       -0.14142393 -0.11645533 -0.09950365 -0.12106905
000320 17 71 13 be e3 92 f8 bd b5 0e d8 3e 44 25 a7 be
       -0.14398609 -0.121373914 0.4219872 -0.3264562
000330 17 86 c6 bd dc b8 56 be 21 b0 1b be 49 29 f4 bd
       -0.09693544 -0.20968956 -0.15203907 -0.11921937
000340 41 53 2a be a4 44 ab 3c da 62 69 3c c7 c6 f4 bd
       -0.16633321 0.020906754 0.014244759 -0.11951976
000350 8f a4 cc bd 84 8c 16 be e2 9d 49 bf a9 5a 60 bf
       -0.099923246 -0.1470204 -0.78756535 -0.87638336
000360 86 ca 96 be 67 2d 00 be d6 a1 7c bf f2 bb 18 be
       -0.29451388 -0.1251732 -0.9868444 -0.14915445
000370 be 6b 83 bf 6f 61 08 be 50 cd 5b bc e2 0a 00 be
       -1.0267255 -0.13318418 -0.0134156495 -0.12504151
000380 32 dc 76 bf 18 29 ea be 4e f2 b2 be 2f 8f 62 bb
       -0.9642974 -0.45734477 -0.3495049 -0.0034570207
000390 26 25 2e be 3c f0 fe bd 10 10 5c be 46 e6 15 be
       -0.17006359 -0.12448165 -0.21490502 -0.14638624
0003a0 56 ab e9 bd d4 d6 ea be 2d c7 22 3e f7 1f 91 bd
       -0.11409633 -0.45867026 0.15896292 -0.07086175
0003b0 5a fe 17 bc f7 e1 09 be 6e e9 4f bd 6f 35 07 be
       -0.009276951 -0.13465105 -0.050759725 -0.13203977
0003c0 d7 18 30 be c1 2c ce be da cc 5d bf 89 c0 a1 bd
       -0.17196976 -0.4026852 -0.86640704 -0.07898051
0003d0 52 58 45 bd b5 97 21 be bd 40 83 bf 50 8c 0b be
       -0.048179932 -0.15780528 -1.0254132 -0.13627744
0003e0 02 6b 24 be 5c e0 33 be d1 34 ce bd 39 15 42 bb
       -0.16056445 -0.17566055 -0.10068668 -0.00296147
0003f0 bf 7c 2e bf 2b da b1 bd da c2 a8 be e3 c1 94 bd
       -0.681591 -0.0868419 -0.3296116 -0.072635435

linear_two.bias f4 [3]
000000 e3 1d 9f bd 27 c9 4b be 83 60 81 be
       -0.07769372 -0.19900952 -0.25268945
